model/fit_func_model0.pt (torch, 4111 bytes, 4 tensors)

model.0.weight f4 [16, 32]
00000000: 8ad0 a53d fe40 0cbd 9d39 323e 4140 18be
00000010: 666a f23d f592 a0bd 6396 42bc 8ae4 04be
00000020: 7754 0abe 9c69 20be e8f1 483d 00e8 483c
00000030: af59 0cbe dcf6 0cbe d93e 29be f7fa 06be
00000040: 615a 94bd 366b c93d 97f2 263e 59a5 33be
00000050: fce4 72bd 8a3e 9a3d f94c 313e a332 013e
00000060: ad38 143e 76c9 0f3e a45b 0dbd fe2e 1dbe
00000070: a830 c8bd 739f 1dbe 2524 0fbe 1f2b c33d
00000080: 3ce1 673d 321c b4bd f67f 9d3d 3a0a 0c3d
00000090: 5274 243e b06f 993d f12a 2e3e 7873 d13c
000000a0: 42fc 813d bcf5 16be 121c 54bd 46b4 a93b
000000b0: 4fbb 143e 4263 f63d 6e27 f4bd bc6d ccbd
000000c0: d821 93bd ea31 a23d d8ac 35bd 49cc 213e
000000d0: 8715 9fbd e0d9 85bc 1b91 2d3e 9adf ccbd
000000e0: a090 babd 6db3 8fbd 0357 6f3d 35b8 1d3d
000000f0: fbc4 1b3e e0fa c4bc 2ec7 043d 9a28 f53d
00000100: 9d61 8fba 394b 093e 4f5c 03be 85e1 283d
00000110: 4806 2f3e 4efc 06be c844 31be 0a45 163e
00000120: ef87 573d b36b 01be 190d 163e 0ade 94bd
00000130: 9aa3 e13d d17d 003e 2804 91bd 3348 6e3b
00000140: 95ca 3cbc ccbf 67bd 3c6d 0d3d 80bb 27bd
00000150: 7740 173e 42b4 f2bd 48ad 473c 35d5 19be
00000160: 500c 613c 9d0c 04be f77c 213e f58a 043e
00000170: 3e89 9f3d 40af 2cbb 46b2 473d 90a8 81bd
00000180: 607d 2d3d 9e6e b5bc 8053 bb3a 573e 843d
00000190: 9d91 25be 9a1b 203e b9c8 45bd b1e9 8ebd
000001a0: d443 ccbd 3094 b0bd 2742 293e a463 11be
000001b0: 5ee9 9b3d 83f2 90bd b414 febd 3e83 d1bd
000001c0: 8d42 12be e82a 00bd 44ad 423d a07d 85bc
000001d0: ab13 83bd 20a7 38bd 1575 253e c379 2dbe
000001e0: 34c5 11be 6923 e3bd 4c24 313e 2bcd 073e
000001f0: 3220 dcbd 2c76 db3d 5ee0 213e 70fc 7dbd
00000200: dbca b6bd 62be 70bd 521e 86bd 3e84 e23d
00000210: 37d5 1f3d a6f5 5cbd b721 2dbc 9952 29bd
00000220: 728c 153e 5e31 28bd 5a0e f13d f1da 143d
00000230: 5c96 ebbc 137f 2fbd cccb 2e3e b11e d7bd
00000240: 91c9 6f3d 2cdd 263d 824f 333e 0b5e e8bd
00000250: 4d44 9abd 6682 d33d 1254 97bd c99a 5bbd
00000260: 934d 04be cee0 dbbd 1a60 973d f9c8 9c3d
00000270: a932 05be b281 ca3d f12e aebd 7130 33be
00000280: 32cf df3d 5402 09bd 1369 d13d c03c 1c3d
00000290: 0a02 08be 6d9c 99bd d702 2f3d 39a4 91bd
000002a0: 6372 20bd 410a 963d e1b2 263e e075 173e
000002b0: 08c6 963c 484c ae3c ad93 0a3e 3e80 a03d
000002c0: b474 04bc ef60 27bd 5584 063e 025f 4e3d
000002d0: 2cbf f6bd 6c17 7a3c 0545 f23d 9901 043e
000002e0: f7a9 ba3d c978 bc3d 31d1 2fbe c60b 58bd
000002f0: eaab 993d 8147 0abc 61e0 b03a 9ac8 c4bd
00000300: 3436 6abc 8d21 783d 00bc 3ebd 6092 24be
00000310: b284 a33d 031c 12be d0c5 8d3c 205b 143c
00000320: 8978 0bbe 2529 cdbd 9068 59bc f034 05bd
00000330: cc37 18be b70e 26be 97ac 2abe c23d 8b3d
00000340: acb5 b33c 35ff 2d3e 88b2 d3bd 32ec cd3d
00000350: 3e0d 32be 1084 54bc a03c 42bc 5075 c4bc
00000360: 2ec9 eebd 3876 a03c 5f1e bd3d 4882 cfbc
00000370: d877 5d3b 9232 19be d77d 46bc 905c c9bd
00000380: 2d53 1cbe 9769 d7bd 647e 7d3d 1614 38be
00000390: 4d7f a43b 98c4 fabd e3a9 6cbd cd7f 2dbe
000003a0: f7bc 0e3e 119d 133e 1196 a1bd 8b26 a03d
000003b0: a987 263e 308f ea3c 2182 313e f975 1e3c
000003c0: 5ed7 723d 3a4d 113e 4dca 873d 78a6 d0bd
000003d0: e04f 573d d760 0b3e 03c1 313e b115 2bbe
000003e0: ecbc 08be 98c6 1b3e 242d 25be a03b 5a3d
000003f0: 93b4 34bd a11a 033c c15b 0b3e 9866 583d
0.08096416 -0.03424167 0.1740479 -0.14868261 0.118367 -0.0784053 -0.011876675 -0.12977806
-0.13508783 -0.15665287 0.049058825 0.012262344 -0.13706087 -0.13766044 -0.1652788 -0.13181673
-0.07243801 0.09834902 0.16303478 -0.17543544 -0.059300408 0.0753146 0.17314519 0.12616973
0.14474745 0.14041695 -0.034511223 -0.15349957 -0.097749054 -0.15392856 -0.13978632 0.09529709
0.056611285 -0.0879444 0.07690422 0.03418944 0.16059998 0.07492006 0.17008568 0.025567755
0.063469425 -0.14742178 -0.051784582 0.005178961 0.14524578 0.12030651 -0.11921583 -0.09981868
-0.071841896 0.079196766 -0.04435429 0.15800585 -0.07767778 -0.016339242 0.16949885 -0.10003586
-0.09109616 -0.070166446 0.05843259 0.03850575 0.15211861 -0.024045408 0.032416515 0.11970635
-0.0010939125 0.13407601 -0.12828182 0.041230697 0.1709224 -0.13182184 -0.17311394 0.14674774
0.05261987 -0.1263874 0.14653434 -0.07268913 0.11017533 0.12547995 -0.07080871 0.0036358952
-0.011522909 -0.056579396 0.034528002 -0.0409503 0.14770685 -0.11850788 0.01218731 -0.15022738
0.013735846 -0.12895437 0.15770327 0.12943633 0.07789849 -0.0026349574 0.048754 -0.06330979
0.042355895 -0.022147473 0.0014291853 0.06457203 -0.16168828 0.15635529 -0.048287127 -0.06978167
-0.09973875 -0.086220145 0.16529141 -0.14198166 0.07612871 -0.070775054 -0.124062926 -0.102301106
-0.142832 -0.03129092 0.04752852 -0.016295254 -0.06400236 -0.045081258 0.16157945 -0.1694098
-0.14235383 -0.11090738 0.17299002 0.13261859 -0.10748328 0.10715899 0.15808246 -0.06200832
-0.0892541 -0.058775313 -0.06548752 0.110603794 0.039021697 -0.053945206 -0.01056712 -0.041338537
0.14604357 -0.041062705 0.117703155 0.03634161 -0.02875822 -0.042845797 0.1706993 -0.10503901
0.058541838 0.04073827 0.17510799 -0.11346062 -0.075325586 0.10327606 -0.07389082 -0.05361441
-0.12920217 -0.107362375 0.07391377 0.0765552 -0.13007607 0.09888019 -0.08505047 -0.17498948
0.10928191 -0.033449486 0.102251194 0.038143873 -0.13282028 -0.07500539 0.042727318 -0.07111401
-0.039171588 0.073261745 0.16279174 0.1479106 0.018404976 0.021276608 0.13532896 0.0783696
-0.008084465 -0.040863927 0.13136418 0.050383575 -0.12048182 0.015264373 0.11829571 0.12891234
0.091144495 0.092027254 -0.17169644 -0.052745603 0.07503493 -0.008439899 0.0013494605 -0.09608574
-0.01429515 0.06057887 -0.04656601 -0.16071463 0.07984294 -0.14268498 0.017306238 0.009054929
-0.136202 -0.10017613 -0.013269559 -0.03252119 -0.14865035 -0.16216551 -0.166674 0.06798889
0.021937214 0.16991885 -0.103367865 0.10054816 -0.17387864 -0.012970939 -0.011855274 -0.02398172
-0.11659466 0.019587621 0.092343085 -0.025330678 0.0033793356 -0.14960697 -0.0121149635 -0.09832108
-0.15266104 -0.105181865 0.061888114 -0.17976412 0.0050200582 -0.122445285 -0.057779204 -0.16943283
0.13939272 0.14415385 -0.07889951 0.078198515 0.16262688 0.02863273 0.17334796 0.009671682
0.05928742 0.14189616 0.06630383 -0.101880014 0.05256641 0.1361116 0.17358784 -0.16707493
-0.13353318 0.15212476 -0.16130501 0.05327952 -0.04411752 0.008001954 0.1360922 0.052832216

model.0.bias f4 [16]
00000000: 7e26 fe3d 36b9 8c3c a86c c33d 1f8e dabd
00000010: c3cb 783d 8ca8 223d 8f4d eabd 1b3f 293e
00000020: 0608 07bc f0ab 27be 925c ec3a 72c5 b43d
00000030: 17c7 a7bd 1eaa 923d 1d02 01be 9158 fbbd
0.124096856 0.01717816 0.09542209 -0.10671639 0.060741197 0.03971152 -0.114405744 0.16527979
-0.008241659 -0.16374183 0.0018032959 0.08826722 -0.0819227 0.071613535 -0.12598462 -0.12272752

model.1.weight f4 [4, 16]
00000000: 5c67 12be 527d 2dbe 5498 f23d 4b72 cdbd
00000010: 1e14 6bbe d4e6 0ebd ae70 05bd bf46 8f3b
00000020: 0636 66be 795e 0f3d c2a3 0c3e a7d1 6ebe
00000030: 51d3 50bd f162 3abd fc78 1b3e ae3b 49bd
00000040: 605e 343e 8cfe abbd 65ed 75be 3451 34be
00000050: fd20 b53c f6dd 6c3e b8d3 e3bd 3c04 473e
00000060: 6493 333e b411 c3bd a4a8 92bd 1031 c5bc
00000070: b0c1 473d 7ca9 e73d d529 1fbe 9584 b9bc
00000080: dc9f 4f3e f2c7 46be b8db 91bd 0023 7cbb
00000090: 0480 8dbd b696 59be 4006 333d 9ae0 31be
000000a0: 0ecf 43be 6c3f 273e 4d0f 473e f564 2cbe
000000b0: ee4e 083e 562d 693e 00ee b7bc f082 6fbd
000000c0: d023 66be 34be 553d 74c1 2a3e 0407 23be
000000d0: be56 47be b80f 3fbd bd7f b6bd 5936 b63b
000000e0: 806f 87bb 2a2c adbc ea23 673e 848f a93d
000000f0: 5bf5 973d 0ee8 223e 6cdf 223e fe60 ae3a
-0.14297241 -0.16942337 0.118454605 -0.10031565 -0.22956893 -0.034888104 -0.032578163 0.0043724473
-0.22481546 0.035002206 0.13734344 -0.23322164 -0.050982777 -0.045504514 0.1518287 -0.04912918
0.17614126 -0.0839816 -0.2401634 -0.17609102 0.022110457 0.23131546 -0.111243665 0.19435209
0.17536694 -0.09524861 -0.07161072 -0.024071246 0.0487687 0.113116235 -0.15543301 -0.022646228
0.20275825 -0.1941221 -0.07121986 -0.003847301 -0.06909183 -0.21248898 0.043707132 -0.17370835
-0.19121954 0.16332787 0.1943943 -0.16835387 0.1331136 0.227712 -0.022452354 -0.05847448
-0.22474599 0.052183345 0.16675359 -0.15920645 -0.19466683 -0.04664585 -0.08911083 0.005560678
-0.004133165 -0.021139223 0.22572294 0.082793266 0.07419845 0.15908834 0.15905541 0.0013304052

model.1.bias f4 [4]
00000000: 5a5f 763e 8290 47be f7ad 603e e8b2 1ebe
0.24059811 -0.19488719 0.21941362 -0.15497935
