model/pure_score_model4.pt (torch, 4123 bytes, 4 tensors)

model.0.weight f4 [16, 32]
0	0xbe23d31c	-0.159985
1	0xbdc9cfa2	-0.09854056
2	0x3bec9baa	0.007220705
3	0xbd2c6ff9	-0.042098973
4	0x3cd51289	0.026009815
5	0xbdc03627	-0.09385329
6	0xbde3015e	-0.11084245
7	0x3b9b5fd3	0.0047416477
8	0xbc514cdf	-0.012774675
9	0xbdb11264	-0.08646086
10	0xbe29797d	-0.1655025
11	0xbe0c8f78	-0.13726604
12	0xbda46fcd	-0.08029137
13	0xbdb5abe2	-0.08870675
14	0xbd5b0a0e	-0.053476386
15	0x3e31e772	0.17373446
16	0xbdbe70fb	-0.09298893
17	0xbda7d35f	-0.08194613
18	0xbdae729d	-0.085179545
19	0xbd734bb7	-0.05939838
20	0x3ddc8733	0.10767975
21	0xbd69a29c	-0.057039842
22	0x3e15b3ef	0.1461942
23	0xbc78cd05	-0.015185599
24	0x3d3836e5	0.044974227
25	0xbe10c31d	-0.1413693
26	0xbd65217a	-0.05594013
27	0x3d4eb16f	0.050462183
28	0xbc4909cb	-0.012270401
29	0x3e0744a9	0.13209786
30	0x3d010ab3	0.031504344
31	0x3cd71621	0.02625567
32	0x3e1db3b6	0.15400586
33	0xbd97d251	-0.074131615
34	0xbe0468c5	-0.12930591
35	0x3c9fc025	0.019500801
36	0xbd6e1b57	-0.058131542
37	0xbe293bbe	-0.16526696
38	0x3e131dcf	0.1436684
39	0xbc61d183	-0.013782862
40	0x3db35865	0.08757094
41	0xbe067559	-0.13130702
42	0xbd2efa67	-0.04271927
43	0xbd0d351a	-0.03447447
44	0x3e1ee203	0.15515904
45	0xbd866f09	-0.06564147
46	0x3dae9fe0	0.085265875
47	0xbd719dfa	-0.05898855
48	0x39a10ad6	0.00030716386
49	0x3d8a5141	0.06753779
50	0xbdcb8c84	-0.099389106
51	0x3e2acfb0	0.16680789
52	0xbdd0fd69	-0.10204584
53	0x3e0a7620	0.13521624
54	0xbdcb7140	-0.0993371
55	0x3d9bcd73	0.07607546
56	0x3d29cbd6	0.04145416
57	0x3cd2b26d	0.025719846
58	0x3be02874	0.00684076
59	0xbe01e36c	-0.12684411
60	0x3e076716	0.13222918
61	0xbe28c731	-0.16482235
62	0x3cbe5a92	0.023236547
63	0xbd08792a	-0.033318676
64	0x3b4bbad8	0.003108671
65	0xbd697eaa	-0.057005562
66	0xbe0dece9	-0.13859905
67	0xbca9f9e1	-0.020749034
68	0xbdd709e5	-0.10499934
69	0x3cb9b460	0.022669017
70	0xbdbf50f6	-0.09341614
71	0x3e0c11d5	0.13678677
72	0xbd40a8b7	-0.0470359
73	0x3e00231a	0.1251339
74	0x3dae5c8d	0.085137464
75	0xbd86e9b5	-0.06587545
76	0x3e252a7d	0.16129489
77	0xbda31ee7	-0.079648785
78	0xbe2a4ebd	-0.16631599
79	0x3dc1ff06	0.0947247
80	0x3de3609f	0.111024134
81	0xbdde86c3	-0.108655475
82	0x3c1fee1b	0.009761359
83	0x3ca53127	0.02016504
84	0x3d6295bf	0.05531859
85	0xbe3aa013	-0.18225126
86	0x3d0095d9	0.031392906
87	0xbded64c6	-0.11591487
88	0x3db2dc70	0.08733451
89	0x3d375e17	0.044767465
90	0x3d303033	0.043014716
91	0xbc7b7346	-0.015347308
92	0x3dd08233	0.101810835
93	0x3dc8fa86	0.098134086
94	0x3ddb46db	0.10706874
95	0x3d6e9caa	0.058254875
96	0xbd44eaf1	-0.04807562
97	0x3e0cfbc8	0.13767922
98	0xbe283f39	-0.16430368
99	0xbdf1a7a5	-0.11799554
100	0xbd2004aa	-0.039066948
101	0xbde5a4c3	-0.112130664
102	0x3c9f47f6	0.019443493
103	0xbe2cc330	-0.16871333
104	0x3e0e74a0	0.13911676
105	0x3d090ef5	0.03346153
106	0xbe0b5451	-0.13606383
107	0xbdd1c4c3	-0.102426074
108	0x3d388d3e	0.045056574
109	0x3d549d45	0.051907796
110	0x3c62faf8	0.013853781
111	0x3dfd2a22	0.12361552
112	0xbdf60f8b	-0.12014683
113	0x3ce0a66e	0.02742311
114	0xbd9cc4eb	-0.076547466
115	0x3d93356f	0.07187926
116	0x3d78298c	0.060586497
117	0xbde6d2d3	-0.1127068
118	0xbdbab009	-0.09115607
119	0xbd1328df	-0.03592765
120	0xbc680865	-0.014162158
121	0xbd531380	-0.05153227
122	0xbde0be62	-0.10973813
123	0x3e22d41e	0.15901229
124	0xbe31cc10	-0.17363
125	0x3d9fb6ac	0.07798514
126	0x3d12d5df	0.035848495
127	0xbdfafed0	-0.12255633
128	0x3ddd503e	0.108063206
129	0x3b88d08e	0.0041752523
130	0xbdc8b7ca	-0.0980068
131	0x3d8cdaad	0.068776466
132	0xbe175eee	-0.14782307
133	0x3d8cbcb4	0.0687193
134	0xbe1e6341	-0.1546755
135	0xbca67cbc	-0.02032315
136	0x3d8742cd	0.06604538
137	0xbddb9e5f	-0.10723566
138	0x3e2d5916	0.16928515
139	0x3de07a67	0.109608464
140	0x3da6412b	0.081178986
141	0x3ddbbecd	0.10729752
142	0x3c42c8ca	0.011888692
143	0xbd9ce993	-0.07661738
144	0xbe0c3058	-0.13690317
145	0xbbe3b7a0	-0.00694938
146	0xbdbbed1b	-0.09176084
147	0x3e09d281	0.13459207
148	0x3dc1c986	0.09462266
149	0x3e0623bf	0.13099574
150	0xbd144aa1	-0.036203984
151	0xbe0e8b7d	-0.13920398
152	0x3c8f12e1	0.017465057
153	0xbd91fddf	-0.071285
154	0xbde8776f	-0.11350905
155	0xbd71994d	-0.05898409
156	0x3da9f658	0.082989395
157	0x3d8caf15	0.06869332
158	0xbd9f7731	-0.07786406
159	0xbbadfcd5	-0.005309681
160	0x3e0a482b	0.13504092
161	0xbe31d620	-0.17366838
162	0xbd84f40b	-0.0649186
163	0x3e2b149a	0.16707078
164	0xba94cd23	-0.0011352639
165	0x3dbec040	0.093140125
166	0xbc352112	-0.011055248
167	0x3dc89c58	0.09795445
168	0xbd20ddc5	-0.039273996
169	0x3e099852	0.13437012
170	0xbd2802a3	-0.04101814
171	0x3e09dd6c	0.13463372
172	0x3df65d70	0.120295405
173	0x3e25d53e	0.16194627
174	0xbe11fbe9	-0.14256252
175	0xbe16cff4	-0.14727765
176	0xbe1a4b6e	-0.15067837
177	0x3c2b9884	0.010473374
178	0xbd816a5e	-0.06319116
179	0x3b6f7a0b	0.003654125
180	0x3d2628d6	0.040566288
181	0xbe1cadce	-0.15300676
182	0xbd1ac56e	-0.03778594
183	0xbd8f0484	-0.06983283
184	0x3dbed187	0.09317308
185	0x3cabc0d0	0.020965964
186	0xbd8d5e8a	-0.069027975
187	0xbe2a8cf7	-0.16655336
188	0xbe26240f	-0.16224693
189	0x3e0a603f	0.13513277
190	0xbda760c0	-0.081727505
191	0xbe1689a9	-0.1470095
192	0x3d879f09	0.066221304
193	0xbe01e2cb	-0.12684171
194	0xbe01d317	-0.1267818
195	0xbd915c05	-0.070976295
196	0x3e10ddd8	0.14147127
197	0xbd11b6c0	-0.035574675
198	0x3de39cdc	0.11113903
199	0xbd6d6b0c	-0.057963416
200	0x3e0ea630	0.13930583
201	0x3c7f4c8a	0.015582213
202	0xbdf1a213	-0.11798491
203	0x3d9001fb	0.07031628
204	0x3cbaf933	0.022823906
205	0xbda62dda	-0.08114214
206	0xbc9ee585	-0.019396553
207	0x3c463407	0.012097365
208	0x3d2674d9	0.04063878
209	0xbdb42c88	-0.08797556
210	0x3e0f701c	0.1400761
211	0xbe1f5cec	-0.1556279
212	0xbcf2234e	-0.02955785
213	0xbe0f8e87	-0.14019214
214	0xbe17daba	-0.14829531
215	0x3e38081a	0.1797184
216	0xbe025a36	-0.12729725
217	0x3dd6085d	0.10450814
218	0xbdadcb51	-0.08486045
219	0xbe32bd48	-0.17455018
220	0xbc824fdd	-0.015907222
221	0x3d7400ac	0.059570953
222	0xbe1e0799	-0.15432586
223	0xbde138fc	-0.10997197
224	0xbddda3e4	-0.10822275
225	0x3d6307a9	0.055427227
226	0x3e2928d8	0.16519487
227	0xbdd0a5e5	-0.10187892
228	0x3d9394c6	0.07206111
229	0x3e344801	0.17605592
230	0x3e03ddf9	0.12877645
231	0xbd501b96	-0.050807558
232	0xbddf5a26	-0.10905866
233	0x3d137e28	0.036008984
234	0xbda18c8e	-0.07888137
235	0x3da116b8	0.078656614
236	0x3dfebeab	0.12438711
237	0x3db7b466	0.08969955
238	0x3d037552	0.032094307
239	0xbdf83a7e	-0.121205315
240	0xbd010340	-0.03149724
241	0xbda3af35	-0.079924025
242	0xbd6d3262	-0.057909377
243	0x3c047b3d	0.008086023
244	0x3e1a4ce9	0.15068401
245	0xbb52c24c	-0.0032159267
246	0x3d9b213b	0.075746976
247	0x3db05302	0.086095825
248	0x3de0e8c3	0.10981896
249	0xbe253bd1	-0.161361
250	0xbdba656b	-0.09101375
251	0x3da87b4e	0.082266435
252	0xbe01ef15	-0.12688859
253	0x3d4d3fad	0.050109554
254	0xbe2a2633	-0.16616134
255	0xbd1d3942	-0.038384683

model.0.bias f4 [16]
0	0xbe2cb76f	-0.1686685
1	0x3d476ce8	0.048687845
2	0x3d153037	0.036422934
3	0xbd55cc5c	-0.052196845
4	0xbc90718f	-0.017632274
5	0x3daa2b13	0.08308997
6	0x3ce5ca32	0.028050516
7	0x3dc9e5f7	0.098583154
8	0x3e1e26db	0.1544451
9	0x3cb6f8c7	0.022335423
10	0x3e07cb8c	0.1326124
11	0x3dc7b301	0.09750939
12	0x3cb8d49e	0.022562321
13	0xbe26f13f	-0.16302966
14	0x3c9083fb	0.017641058
15	0x3e0dfd1c	0.13866085

model.1.weight f4 [4, 16]
0	0xbe002871	-0.12515427
1	0x3d8ea981	0.06965924
2	0x3e10329f	0.1408181
3	0x3d434ee4	0.047682658
4	0x3d497262	0.04918135
5	0x3e2a408e	0.16626188
6	0xbdadaa8d	-0.084797956
7	0x3e553562	0.20821145
8	0xbe26bdc4	-0.16283327
9	0x3d438b67	0.047740366
10	0x3d72af43	0.059249174
11	0x3d3ad08a	0.045609035
12	0xbe338502	-0.17531207
13	0x3e466c5d	0.19377275
14	0x3cc4a71e	0.024005469
15	0xbcc397f3	-0.023876166
16	0xbe1ccb0e	-0.15311834
17	0xbd63e1c9	-0.055635247
18	0x3e00bc67	0.1257187
19	0xbcb87c5d	-0.022520239
20	0xbe836603	-0.25663766
21	0xbd23b31b	-0.03996573
22	0xbe6daf5a	-0.23211423
23	0xbe308e81	-0.17241861
24	0xbe0053ab	-0.12531917
25	0xbe3a14c8	-0.1817199
26	0x3d9d45b5	0.07679311
27	0x3e202b16	0.15641436
28	0x3e184792	0.14871052
29	0xbd6ca0f4	-0.057770684
30	0xbd276862	-0.04087103
31	0xbe6b6ddf	-0.22991131
32	0x3e2f8836	0.17141804
33	0xbd10bb25	-0.035334725
34	0xbe4286cf	-0.18996738
35	0x3d8c22dd	0.06842587
36	0xbe10e439	-0.1414956
37	0xbe1dfb31	-0.15427853
38	0xbe6d5da0	-0.23180246
39	0xbe600415	-0.21876557
40	0x3df184ed	0.11792932
41	0x3e74db1f	0.23911713
42	0xbe036b83	-0.12833981
43	0xbe6f87a2	-0.23391584
44	0xbcca4569	-0.0246913
45	0xbe057314	-0.1303218
46	0x3e05b5dd	0.13057657
47	0x3d09b0b6	0.03361579
48	0x3d0e1058	0.034683555
49	0xbd483998	-0.04888305
50	0xbc9c5d54	-0.019087471
51	0xbd812fd1	-0.063079484
52	0xbdf94501	-0.121713646
53	0x3d80df61	0.06292606
54	0xbdb8781b	-0.09007283
55	0xbe7ad7ef	-0.24496435
56	0xbd83c227	-0.06433516
57	0x3e806c38	0.25082564
58	0xbdf6696d	-0.12031827
59	0xbe026c7c	-0.12736696
60	0xbe2e855d	-0.17043062
61	0xbe1ae13a	-0.1512498
62	0x3d1f69b3	0.038919162
63	0x3e82d666	0.25554198

model.1.bias f4 [4]
0	0x3e03dbfc	0.12876886
1	0x3e486a7f	0.19571875
2	0xbe302b73	-0.17204075
3	0xbd85ade0	-0.06527305
