model/pure_score_model0.pt (torch, 4123 bytes, 4 tensors)

model.0.weight f4 [16, 32]
-0.159985 -0.09854056 0.00719889 -0.042098973 0.026139865 -0.093200885 -0.11084245 0.0047416477
-0.012774675 -0.08646086 -0.16633417 -0.13726604 -0.08133805 -0.08870675 -0.053476386 0.1754718
-0.09298893 -0.08170029 -0.0844175 -0.059873566 0.10713984 -0.057039842 0.14678133 -0.015185599
0.044974227 -0.1413693 -0.055386268 0.050971903 -0.012270401 0.13209786 0.031504344 0.02625567
0.15400586 -0.074131615 -0.12930591 0.019307723 -0.058131542 -0.16676652 0.1436684 -0.013782862
0.08757094 -0.13130702 -0.042462956 -0.03447447 0.15515904 -0.06564147 0.08690792 -0.059578434
0.00030563536 0.06753779 -0.09830481 0.16381869 -0.10204584 0.13521624 -0.0993371 0.07607546
0.04145416 0.025668407 0.006937317 -0.12684411 0.1331613 -0.16482235 0.023259783 -0.033318676
0.003108671 -0.057005562 -0.13915567 -0.020749034 -0.10499934 0.022669017 -0.093322255 0.13678677
-0.046755366 0.12588924 0.085137464 -0.065612994 0.1600074 -0.079808086 -0.16465282 0.09539245
0.11047397 -0.108655475 0.009751607 0.02020537 0.05531859 -0.18225126 0.031330246 -0.11591487
0.08830002 0.044324223 0.043014716 -0.015102718 0.102322966 0.098134086 0.10631978 0.058138598
-0.04807562 0.13767922 -0.16430368 -0.11906714 -0.039066948 -0.112018645 0.019657677 -0.16754286
0.13828704 0.03346153 -0.13471666 -0.102426074 0.045056574 0.051907796 0.013853781 0.12386324
-0.12014683 0.027477955 -0.0767778 0.07187926 0.061010182 -0.11281962 -0.09115607 -0.03571337
-0.01413389 -0.05153227 -0.10973813 0.15901229 -0.17363 0.07853488 0.035848495 -0.12255633
0.108063206 0.0041418504 -0.0980068 0.068776466 -0.14782307 0.06817391 -0.1534367 -0.02026218
0.065910116 -0.10723566 0.16928515 0.109608464 0.08020969 0.10794519 0.011888692 -0.07700239
-0.13635555 -0.0069424375 -0.09176084 0.13459207 0.09462266 0.13034075 -0.03620413 -0.13920398
0.017307872 -0.07099816 -0.113736525 -0.05898409 0.082989395 0.06869332 -0.07786406 -0.00526232
0.13382556 -0.17210537 -0.06472508 0.16707078 -0.0011352639 0.093140125 -0.011055248 0.097758934
-0.039273996 0.13612339 -0.04118275 0.13463372 0.12017389 0.16081265 -0.14128585 -0.14683539
-0.15067837 0.010473374 -0.06319116 0.003654125 0.040566288 -0.15193571 -0.03778594 -0.07032511
0.09317308 0.020965964 -0.069027975 -0.16722159 -0.16224693 0.13459225 -0.081727505 -0.1470095
0.06715697 -0.12684171 -0.1267818 -0.070976295 0.14147127 -0.035574675 0.11113903 -0.057963416
0.13930583 0.015582213 -0.11879916 0.070667855 0.023008315 -0.08114214 -0.019396553 0.012145453
0.04063878 -0.08815169 0.14105663 -0.1556279 -0.02955785 -0.13963081 -0.14756 0.18116775
-0.12704468 0.10450814 -0.08486045 -0.17315377 -0.015796646 0.059570953 -0.15247887 -0.10931148
-0.10757729 0.055427227 0.16552526 -0.10187892 0.07206111 0.17605592 0.12877645 -0.051114243
-0.10905866 0.036008984 -0.07967018 0.078656614 0.12438711 0.08907602 0.032385778 -0.1206023
-0.03149724 -0.079924025 -0.05762213 0.008159458 0.15068401 -0.0032679401 0.0758228 0.086095825
0.10981896 -0.161361 -0.09248513 0.08153264 -0.12688859 0.050109554 -0.166826 -0.038576607
00000000: 1cd3 23be a2cf c9bd abe4 eb3b f96f 2cbd
00000010: 4523 d63c 1be0 bebd 5e01 e3bd d35f 9b3b
00000020: df4c 51bc 6412 b1bd 8153 2abe 788f 0cbe
00000030: 9094 a6bd e2ab b5bd 0e0a 5bbd e1ae 333e
00000040: fb70 bebd 7b52 a7bd 15e3 acbd fc3d 75bd
00000050: 226c db3d 9ca2 69bd d84d 163e 05cd 78bc
00000060: e536 383d 1dc3 10be b6dc 62bd eac7 503d
00000070: cb09 49bc a944 073e b30a 013d 2116 d73c
00000080: b6b3 1d3e 51d2 97bd c568 04be 3b2b 9e3c
00000090: 571b 6ebd d8c4 2abe cf1d 133e 83d1 61bc
000000a0: 6558 b33d 5975 06be a3ed 2dbd 1a35 0dbd
000000b0: 03e2 1e3e 096f 86bd c8fc b13d 8408 74bd
000000c0: af3d a039 4151 8a3d 0854 c9bd 16c0 273e
000000d0: 69fd d0bd 2076 0a3e 4071 cbbd 73cd 9b3d
000000e0: d6cb 293d 8d46 d23c 6f52 e33b 6ce3 01be
000000f0: 705b 083e 31c7 28be 4d8b be3c 2a79 08bd
00000100: d8ba 4b3b aa7e 69bd d37e 0ebe e1f9 a9bc
00000110: e509 d7bd 60b4 b93c bd1f bfbd d511 0c3e
00000120: 8e82 3fbd 1ce9 003e 8d5c ae3d 1b60 86bd
00000130: fbd8 233e 6c72 a3bd c09a 28be 1e5d c33d
00000140: 2d40 e23d c386 debd 34c5 1f3c bb85 a53c
00000150: bf95 623d 13a0 3abe 2554 003d c664 edbd
00000160: a4d6 b43d 518d 353d 3330 303d 6471 77bc
00000170: b48e d13d 86fa c83d 2fbe d93d bd22 6e3d
00000180: f1ea 44bd c8fb 0c3e 393f 28be 79d9 f3bd
00000190: aa04 20bd 086a e5bd 2309 a13c 5b90 2bbe
000001a0: 1e9b 0d3e f50e 093d 2af3 09be c3c4 d1bd
000001b0: 3e8d 383d 459d 543d f8fa 623c 03ac fd3d
000001c0: 8b0f f6bd 7319 e13c ae3d 9dbd 6f35 933d
000001d0: d0e5 793d f90d e7bd 09b0 babd 2f48 12bd
000001e0: d591 67bc 8013 53bd 62be e0bd 1ed4 223e
000001f0: 10cc 31be e5d6 a03d dfd5 123d d0fe fabd
00000200: 3e50 dd3d 5cb8 873b cab7 c8bd adda 8c3d
00000210: ee5e 17be c39e 8b3d 831e 1dbe dffc a5bc
00000220: e2fb 863d 5f9e dbbd 1659 2d3e 677a e03d
00000230: fa44 a43d 5e12 dd3d cac8 423c 6eb3 9dbd
00000240: caa0 0bbe 637d e3bb 1bed bbbd 81d2 093e
00000250: 86c9 c13d 0c78 053e c84a 14bd 7d8b 0ebe
00000260: 3dc9 8d3c 7c67 91bd b2ee e8bd 4d99 71bd
00000270: 58f6 a93d 15af 8c3d 3177 9fbd 8a6f acbb
00000280: 9109 093e 643c 30be 958e 84bd 9a14 2b3e
00000290: 23cd 94ba 40c0 be3d 1221 35bc d635 c83d
000002a0: c5dd 20bd ee63 0b3e 3eaf 28bd 6cdd 093e
000002b0: ba1d f63d 12ac 243e 3dad 10be 045c 16be
000002c0: 6e4b 1abe 8498 2b3c 5e6a 81bd 0b7a 6f3b
000002d0: d628 263d 0995 1bbe 6ec5 1abd 9c06 90bd
000002e0: 87d1 be3d d0c0 ab3c 8a5e 8dbd 233c 2bbe
000002f0: 0f24 26be 8dd2 093e c060 a7bd a989 16be
00000300: 9889 893d cbe2 01be 17d3 01be 055c 91bd
00000310: d8dd 103e c0b6 11bd dc9c e33d 0c6b 6dbd
00000320: 30a6 0e3e 8a4c 7f3c f94c f3bd 4fba 903d
00000330: ef7b bc3c da2d a6bd 85e5 9ebc b9fd 463c
00000340: d974 263d e088 b4bd 2671 103e ec5c 1fbe
00000350: 4e23 f2bc 61fb 0ebe f819 17be 0a84 393e
00000360: 0018 02be 5d08 d63d 51cb adbd 394f 31be
00000370: f867 81bc ac00 743d 6c23 1cbe b2de dfbd
00000380: 7b51 dcbd a907 633d 747f 293e e5a5 d0bd
00000390: c694 933d 0148 343e f9dd 033e 2b5d 51bd
000003a0: 265a dfbd 287e 133d 1f2a a3bd b816 a13d
000003b0: abbe fe3d 7d6d b63d f3a6 043d 57fe f6bd
000003c0: 4003 01bd 35af a3bd 2f05 6cbd 3faf 053c
000003d0: e94c 1a3e f02a 56bb fc48 9b3d 0253 b03d
000003e0: c3e8 e03d d13b 25be d868 bdbd 96fa a63d
000003f0: 15ef 01be ad3f 4d3d 6fd4 2abe 8102 1ebd

model.0.bias f4 [16]
-0.16766518 0.048253562 0.036422934 -0.05136514 -0.017808598 0.08308997 0.028050516 0.098583154
0.1544451 0.022268012 0.13314338 0.09848449 0.022742819 -0.16173577 0.017641058 0.13866085
00000000: 6cb0 2bbe 87a5 453d 3730 153d 4164 52bd
00000010: 56e3 91bc 132b aa3d 32ca e53c f7e5 c93d
00000020: db26 1e3e 686b b63c bd56 083e 3cb2 c93d
00000030: 264f ba3c 109e 25be fb83 903c 1cfd 0d3e

model.1.weight f4 [4, 16]
-0.12515427 0.06965924 0.1408181 0.04730191 0.04918135 0.16626188 -0.08445876 0.20675397
-0.16560723 0.047453925 0.05901312 0.045609035 -0.17513694 0.19319394 0.024005469 -0.024140557
-0.15311834 -0.055635247 0.12698859 -0.022520239 -0.25561112 -0.03996573 -0.23634961 -0.17398447
-0.12569626 -0.1817199 0.07679311 0.1534719 0.14871052 -0.05759789 -0.04087103 -0.23176543
0.17297168 -0.03512398 -0.18996738 0.06727638 -0.14348733 -0.15427853 -0.23157066 -0.21681425
0.11792932 0.23911713 -0.12833981 -0.23205936 -0.024865357 -0.12953831 0.13057657 0.03361579
0.03478567 -0.04888305 -0.019087471 -0.063778184 -0.12404956 0.06236478 -0.09061653 -0.24227709
-0.06452817 0.25310358 -0.12031827 -0.12685749 -0.17043062 -0.1509479 0.038919162 0.25554198
00000000: 7128 00be 81a9 8e3d 9f32 103e a6bf 413d
00000010: 6272 493d 8e40 2a3e b7f8 acbd 50b7 533e
00000020: f194 29be 0c5f 423d beb7 713d 8ad0 3a3d
00000030: 1957 33be a2d4 453e 1ea7 c43c 6bc2 c5bc
00000040: 0ecb 1cbe c9e1 63bd 4c09 023e 5d7c b8bc
00000050: 76df 82be 1bb3 23bd a205 72be fc28 32be
00000060: 85b6 00be c814 3abe b545 9d3d bd27 1d3e
00000070: 9247 183e c4eb 6bbd 6268 27bd eb53 6dbe
00000080: 7d1f 313e 2ade 0fbd cf86 42be 33c8 893d
00000090: 58ee 12be 31fb 1dbe dc20 6dbe 8e04 5ebe
000000a0: ed84 f13d 1fdb 743e 836b 03be f8a0 6dbe
000000b0: 6fb2 cbbc b1a5 04be ddb5 053e b6b0 093d
000000c0: 6b7b 0e3d 9839 48bd 545d 9cbc 239e 82bd
000000d0: b20d febd 3672 7f3d 2995 b9bd 7c17 78be
000000e0: 5827 84bd cb96 813e 6d69 f6bd eee6 01be
000000f0: 5d85 2ebe 1692 1abe b369 1f3d 66d6 823e

model.1.bias f4 [4]
0.12992442 0.19571875 -0.17186871 -0.06527305
00000000: e80a 053e 7f6a 483e 5afe 2fbe e0ad 85bd
