model/pure_score_model3.pt (torch, 4123 bytes, 4 tensors)

model.0.weight f4 [16, 32]
000000 1c d3 23 be a2 cf c9 bd a5 6b f0 3b f9 6f 2c bd
       -0.159985 -0.09854056 0.007337051 -0.042098973
000010 45 23 d6 3c 1b e0 be bd 42 8d e2 bd d3 5f 9b 3b
       0.026139865 -0.093200885 -0.11062099 0.0047416477
000020 8c 76 50 bc 64 12 b1 bd 7d 79 29 be 56 af 0d be
       -0.012723576 -0.08646086 -0.1655025 -0.13836417
000030 cd 6f a4 bd 6c 94 b6 bd 0e 0a 5b bd 72 e7 31 3e
       -0.08029137 -0.08915028 -0.053476386 0.17373446
000040 fb 70 be bd 5f d3 a7 bd 15 e3 ac bd b7 4b 73 bd
       -0.09298893 -0.08194613 -0.0844175 -0.05939838
000050 ec 6c db 3d 9c a2 69 bd b2 34 14 3e 05 cd 78 bc
       0.107141346 -0.057039842 0.14473227 -0.015185599
000060 4e 5f 36 3d 3b 0d 11 be b6 dc 62 bd ea c7 50 3d
       0.044524483 -0.14165203 -0.055386268 0.050971903
000070 cb 09 49 bc 9b 14 08 3e b3 0a 01 3d 21 16 d7 3c
       -0.012270401 0.1328911 0.031504344 0.02625567
000080 b6 b3 1d 3e 51 d2 97 bd c5 68 04 be 25 c0 9f 3c
       0.15400586 -0.074131615 -0.12930591 0.019500801
000090 57 1b 6e bd be 3b 29 be cf 1d 13 3e 83 d1 61 bc
       -0.058131542 -0.16526696 0.1436684 -0.013782862
0000a0 65 58 b3 3d 4c 66 07 be a3 ed 2d bd 1a 35 0d bd
       0.08757094 -0.13222617 -0.042462956 -0.03447447
0000b0 62 ad 1f 3e 09 6f 86 bd d6 e0 ac 3d fa 9d 71 bd
       0.15593484 -0.06564147 0.084413216 -0.05898855
0000c0 82 a3 9e 39 41 51 8a 3d bb 55 ca bd b0 cf 2a 3e
       0.0003025793 0.06753779 -0.09879633 0.16680789
0000d0 69 fd d0 bd 20 76 0a 3e 40 71 cb bd 73 cd 9b 3d
       -0.10204584 0.13521624 -0.0993371 0.07607546
0000e0 d6 cb 29 3d 6d b2 d2 3c 6f 52 e3 3b 04 64 04 be
       0.04145416 0.025719846 0.006937317 -0.12928778
0000f0 70 5b 08 3e 54 42 27 be 08 bc be 3c 2a 79 08 bd
       0.1331613 -0.16333896 0.02328302 -0.033318676
000100 d8 ba 4b 3b aa 7e 69 bd d3 7e 0e be e1 f9 a9 bc
       0.003108671 -0.057005562 -0.13915567 -0.020749034
000110 e5 09 d7 bd 60 b4 b9 3c 14 47 c0 bd d5 11 0c 3e
       -0.10499934 0.022669017 -0.09388557 0.13678677
000120 58 fa 3d bd 1c e9 00 3e 8d 5c ae 3d 1b 60 86 bd
       -0.046381325 0.12588924 0.085137464 -0.065612994
000130 39 7f 25 3e e7 1e a3 bd c0 9a 28 be 1e 5d c3 3d
       0.16161813 -0.079648785 -0.16465282 0.09539245
000140 2d 40 e2 3d c3 86 de bd 29 9d 1f 3c bb 85 a5 3c
       0.11047397 -0.108655475 0.00974206 0.02020537
000150 bf 95 62 3d 13 a0 3a be 25 54 00 3d c6 64 ed bd
       0.05531859 -0.18225126 0.031330246 -0.11591487
000160 70 dc b2 3d 51 8d 35 3d 23 c6 31 3d 46 73 7b bc
       0.08733451 0.044324223 0.04340185 -0.015347308
000170 a0 23 d1 3d 86 fa c8 3d ab 2d da 3d bd 22 6e 3d
       0.10211873 0.098134086 0.10653242 0.058138598
000180 f1 ea 44 bd c8 fb 0c 3e 39 3f 28 be 32 1e f3 bd
       -0.04807562 0.13767922 -0.16430368 -0.11870994
000190 aa 04 20 bd 61 03 e7 bd eb f5 9e 3c b1 38 2b be
       -0.039066948 -0.11279941 0.019404372 -0.16720845
0001a0 e8 73 0f 3e f5 0e 09 3d 2a f3 09 be c3 c4 d1 bd
       0.14009058 0.03346153 -0.13471666 -0.102426074
0001b0 3e 8d 38 3d 45 9d 54 3d e8 45 65 3c 03 ac fd 3d
       0.045056574 0.051907796 0.013993718 0.12386324
0001c0 8b 0f f6 bd d2 bf e4 3c ae 3d 9d bd 6f 35 93 3d
       -0.12014683 0.027923498 -0.0767778 0.07187926
0001d0 d0 e5 79 3d a4 e6 e8 bd 09 b0 ba bd df 28 13 bd
       0.061010182 -0.11372116 -0.09115607 -0.03592765
0001e0 5e a7 69 bc 80 13 53 bd 62 be e0 bd 1e d4 22 3e
       -0.014261095 -0.05153227 -0.10973813 0.15901229
0001f0 10 cc 31 be e5 d6 a0 3d df d5 12 3d d0 fe fa bd
       -0.17363 0.07853488 0.035848495 -0.12255633
000200 3e 50 dd 3d 8e d0 88 3b f4 b5 c6 bd ad da 8c 3d
       0.108063206 0.0041752523 -0.097026736 0.068776466
000210 70 e2 18 be c3 9e 8b 3d 41 63 1e be df fc a5 bc
       -0.14930129 0.06817391 -0.1546755 -0.02026218
000220 c9 2d 86 3d 5f 9e db bd 16 59 2d 3e 67 7a e0 3d
       0.065517016 -0.10723566 0.16928515 0.109608464
000230 fa 44 a4 3d 07 4e df 3d ca c8 42 3c e1 57 9b bd
       0.08020969 0.109035544 0.011888692 -0.07585121
000240 bf be 0c be 63 7d e3 bb 1b ed bb bd 81 d2 09 3e
       -0.13744639 -0.0069424375 -0.09176084 0.13459207
000250 86 c9 c1 3d 60 ef 04 3e ab 24 14 bd 7d 8b 0e be
       0.09462266 0.1298194 -0.03616778 -0.13920398
000260 6e 38 8e 3c df fd 91 bd b2 ee e8 bd ee 34 6f bd
       0.017360892 -0.071285 -0.113736525 -0.058400087
000270 3e 43 a8 3d 15 af 8c 3d 31 77 9f bd 8a 6f ac bb
       0.082159504 0.06869332 -0.07786406 -0.00526232
000280 2b e6 08 3e 64 3c 30 be 95 8e 84 bd 9a 14 2b 3e
       0.13369052 -0.17210537 -0.06472508 0.16707078
000290 c4 34 94 ba 40 c0 be 3d 12 21 35 bc d6 35 c8 3d
       -0.0011307229 0.093140125 -0.011055248 0.097758934
0002a0 47 f1 1e bd 52 98 09 3e 45 e0 29 bd a9 09 09 3e
       -0.03880432 0.13437012 -0.041473646 0.13382591
0002b0 70 5d f6 3d 12 ac 24 3e e9 fb 11 be f4 cf 16 be
       0.120295405 0.16081265 -0.14256252 -0.14727765
0002c0 ef e7 18 be 84 98 2b 3c 5e 6a 81 bd 0b 7a 6f 3b
       -0.14932226 0.010473374 -0.06319116 0.003654125
0002d0 d6 28 26 3d 93 c6 1d be 91 4e 1a bd 9c 06 90 bd
       0.040566288 -0.15407781 -0.037672583 -0.07032511
0002e0 e2 0d be 3d 08 8d aa 3c 8a 5e 8d bd 58 10 2b be
       0.09279992 0.020819202 -0.069027975 -0.16705453
0002f0 0f 24 26 be 3f 60 0a 3e 12 38 a8 bd a9 89 16 be
       -0.16224693 0.13513277 -0.082138196 -0.1470095
000300 98 89 89 3d cb e2 01 be 17 d3 01 be 05 5c 91 bd
       0.06715697 -0.12684171 -0.1267818 -0.070976295
000310 77 da 0f 3e c0 b6 11 bd dc 9c e3 3d 0c 6b 6d bd
       0.14048181 -0.035574675 0.11113903 -0.057963416
000320 30 a6 0e 3e 41 cf 7f 3c f9 4c f3 bd fb 01 90 3d
       0.13930583 0.015613378 -0.11879916 0.07031628
000330 ef 7b bc 3c da 2d a6 bd 85 e5 9e bc 07 34 46 3c
       0.023008315 -0.08114214 -0.019396553 0.012097365
000340 d9 74 26 3d b4 5a b4 bd 1c 70 0f 3e ec 5c 1f be
       0.04063878 -0.08806363 0.1400761 -0.1556279
000350 41 1b f3 bc 87 8e 0f be be 28 18 be 0a 84 39 3e
       -0.029676082 -0.14019214 -0.14859292 0.18116775
000360 36 5a 02 be 5d 08 d6 3d 51 cb ad bd 48 bd 32 be
       -0.12729725 0.10450814 -0.08486045 -0.17455018
000370 dd 4f 82 bc db 32 76 3d 6c 23 1c be b3 72 e1 bd
       -0.015907222 0.060107093 -0.15247887 -0.11008205
000380 e4 a3 dd bd a9 07 63 3d d8 28 29 3e e5 a5 d0 bd
       -0.10822275 0.055427227 0.16519487 -0.10187892
000390 c6 94 93 3d 01 48 34 3e f9 dd 03 3e 96 1b 50 bd
       0.07206111 0.17605592 0.12877645 -0.050807558
0003a0 26 5a df bd 28 7e 13 3d 8e 8c a1 bd 3e c4 a0 3d
       -0.10905866 0.036008984 -0.07888137 0.0784993
0003b0 ab be fe 3d be 3e b6 3d 0b 78 03 3d 51 f7 f9 bd
       0.12438711 0.08898686 0.032096904 -0.12205375
0003c0 16 3d 00 bd 35 af a3 bd 62 32 6d bd 3f af 05 3c
       -0.031308256 -0.079924025 -0.057909377 0.008159458
0003d0 e9 4c 1a 3e f0 2a 56 bb fc 48 9b 3d 02 53 b0 3d
       0.15068401 -0.0032679401 0.0758228 0.086095825
0003e0 c3 e8 e0 3d d1 3b 25 be d8 68 bd bd 99 4f a6 3d
       0.10981896 -0.161361 -0.09248513 0.08120651
0003f0 15 ef 01 be 38 fe 4a 3d 6f d4 2a be 81 02 1e bd
       -0.12688859 0.04955885 -0.166826 -0.038576607

model.0.bias f4 [16]
000000 6c b0 2b be b6 07 47 3d 06 0a 15 3d 5c cc 55 bd
       -0.16766518 0.048591338 0.036386512 -0.052196845
000010 8f 71 90 bc 13 2b aa 3d eb 7b e6 3c f7 e5 c9 3d
       -0.017632274 0.08308997 0.02813526 0.098583154
000020 db 26 1e 3e b5 3c b6 3c 8c cb 07 3e 01 b3 c7 3d
       0.1544451 0.022245744 0.1326124 0.09750939
000030 26 4f ba 3c 10 9e 25 be fb 83 90 3c 1c fd 0d 3e
       0.022742819 -0.16173577 0.017641058 0.13866085

model.1.weight f4 [4, 16]
000000 71 28 00 be 81 a9 8e 3d 9f 32 10 3e e4 4e 43 3d
       -0.12515427 0.06965924 0.1408181 0.047682658
000010 16 76 4b 3d 8e 40 2a 3e b7 f8 ac bd 50 b7 53 3e
       0.049673162 0.16626188 -0.08445876 0.20675397
000020 dd 3b 27 be 08 22 44 3d be b7 71 3d 8a d0 3a 3d
       -0.1633143 0.047884017 0.05901312 0.045609035
000030 19 57 33 be f9 06 46 3e 1e a7 c4 3c 1c 91 c4 bc
       -0.17513694 0.19338597 0.024005469 -0.023994975
000040 c7 7a 1c be c9 e1 63 bd 74 8e 02 3e 5d 7c b8 bc
       -0.15281211 -0.055635247 0.12749654 -0.022520239
000050 03 66 83 be 1b b3 23 bd ba 8b 6b be fc 28 32 be
       -0.25663766 -0.03996573 -0.2300252 -0.17398447
000060 ab 53 00 be c8 14 3a be b5 45 9d 3d 4f e6 1e 3e
       -0.12531917 -0.1817199 0.07679311 0.15517543
000070 92 47 18 3e f4 a0 6c bd f9 67 26 bd 30 0a 6e be
       0.14871052 -0.057770684 -0.0406265 -0.23246074
000080 7d 1f 31 3e 25 bb 10 bd cf 86 42 be 7c 29 8b 3d
       0.17297168 -0.035334725 -0.18996738 0.06795022
000090 39 e4 10 be da ed 1e be dc 20 6d be 8e 04 5e be
       -0.1414956 -0.1552042 -0.23157066 -0.21681425
0000a0 e6 f7 f2 3d dc 29 72 3e 83 6b 03 be f8 a0 6d be
       0.11863689 0.2364878 -0.12833981 -0.23205936
0000b0 69 45 ca bc 14 73 05 be dd b5 05 3e b6 b0 09 3d
       -0.0246913 -0.1303218 0.13057657 0.03361579
0000c0 6b 7b 0e 3d 98 39 48 bd 54 5d 9c bc 18 72 81 bd
       0.03478567 -0.04888305 -0.019087471 -0.0632059
0000d0 b2 0d fe bd 61 df 80 3d 49 8a b7 bd ef d7 7a be
       -0.12404956 0.06292606 -0.08961923 -0.24496435
0000e0 27 c2 83 bd cb 96 81 3e 6d 69 f6 bd 7c 6c 02 be
       -0.06433516 0.25310358 -0.12031827 -0.12736696
0000f0 53 29 2e be 16 92 1a be b3 69 1f 3d 66 d6 82 3e
       -0.17007951 -0.1509479 0.038919162 0.25554198

model.1.bias f4 [4]
000000 4f 40 04 3e 1c d1 48 3e 5a fe 2f be e0 ad 85 bd
       0.12915157 0.19611019 -0.17186871 -0.06527305
