model/pure_score_model1.pt (torch, 4123 bytes, 4 tensors)

model.0.weight f4 [16, 32]
0	0xbe218a04	-0.15775305
1	0xbdc9cfa2	-0.09854056
2	0x3bea018f	0.007141299
3	0xbd2c6ff9	-0.042098973
4	0x3cd62345	0.026139865
5	0xbdbee01b	-0.093200885
6	0xbde3015e	-0.11084245
7	0x3b9b5fd3	0.0047416477
8	0xbc514cdf	-0.012774675
9	0xbdb0b7bb	-0.08628794
10	0xbe29797d	-0.1655025
11	0xbe0daf56	-0.13836417
12	0xbda34921	-0.079729326
13	0xbdb3dbec	-0.08782181
14	0xbd5b0a0e	-0.053476386
15	0x3e31e772	0.17373446
16	0xbdbe70fb	-0.09298893
17	0xbda7527b	-0.08170029
18	0xbdace315	-0.0844175
19	0xbd753dfc	-0.059873566
20	0x3ddd9ddb	0.10821124
21	0xbd69a29c	-0.057039842
22	0x3e167452	0.1469281
23	0xbc78cd05	-0.015185599
24	0x3d3836e5	0.044974227
25	0xbe10c31d	-0.1413693
26	0xbd62dcb6	-0.055386268
27	0x3d4eb16f	0.050462183
28	0xbc4909cb	-0.012270401
29	0x3e0744a9	0.13209786
30	0x3d010ab3	0.031504344
31	0x3cd71621	0.02625567
32	0x3e1db3b6	0.15400586
33	0xbd97d251	-0.074131615
34	0xbe0468c5	-0.12930591
35	0x3c9e2b3b	0.019307723
36	0xbd6ed254	-0.058306053
37	0xbe2c2294	-0.16810066
38	0x3e139009	0.14410414
39	0xbc600309	-0.013672599
40	0x3db2a0bf	0.08722066
41	0xbe067559	-0.13130702
42	0xbd2deda3	-0.042462956
43	0xbd0d351a	-0.03447447
44	0x3e1fad62	0.15593484
45	0xbd866f09	-0.06564147
46	0x3db1fcc8	0.08690792
47	0xbd740884	-0.059578434
48	0x39a15ce1	0.00030777513
49	0x3d8a0a6f	0.06740271
50	0xbdc95408	-0.09830481
51	0x3e27c016	0.16381869
52	0xbdd23e6b	-0.102658115
53	0x3e0a7620	0.13521624
54	0xbdcb7140	-0.0993371
55	0x3d9bcd73	0.07607546
56	0x3d29cbd6	0.04145416
57	0x3cd2b26d	0.025719846
58	0x3be2319b	0.006902886
59	0xbe01e36c	-0.12684411
60	0x3e085b70	0.1331613
61	0xbe28c731	-0.16482235
62	0x3cbe5a92	0.023236547
63	0xbd08792a	-0.033318676
64	0x3b4c2327	0.0031148882
65	0xbd697eaa	-0.057005562
66	0xbe0e7ed3	-0.13915567
67	0xbca9f9e1	-0.020749034
68	0xbdd709e5	-0.10499934
69	0x3cb9b460	0.022669017
70	0xbdbf1fbd	-0.093322255
71	0x3e0c11d5	0.13678677
72	0xbd3f828e	-0.046755366
73	0x3e00021a	0.12500802
74	0x3dae5c8d	0.085137464
75	0xbd86601b	-0.065612994
76	0x3e23d8fb	0.1600074
77	0xbda44337	-0.08020633
78	0xbe2a4ebd	-0.16631599
79	0x3dc35d1e	0.09539245
80	0x3ddf8be7	0.10915356
81	0xbdde86c3	-0.108655475
82	0x3c1fc534	0.009751607
83	0x3ca585bb	0.02020537
84	0x3d6295bf	0.05531859
85	0xbe3aa013	-0.18225126
86	0x3d005425	0.031330246
87	0xbded64c6	-0.11591487
88	0x3db3c288	0.08777338
89	0x3d358d51	0.044324223
90	0x3d303033	0.043014716
91	0xbc7cb521	-0.015424044
92	0x3dcfe188	0.101504385
93	0x3dc8fa86	0.098134086
94	0x3dda2dab	0.10653242
95	0x3d6e22bd	0.058138598
96	0xbd44eaf1	-0.04807562
97	0x3e0c233b	0.13685314
98	0xbe28955d	-0.16463228
99	0xbdf1a834	-0.1179966
100	0xbd2004aa	-0.039066948
101	0xbde56a08	-0.112018645
102	0x3ca10923	0.019657677
103	0xbe2cc330	-0.16871333
104	0x3e0e74a0	0.13911676
105	0x3d090ef5	0.03346153
106	0xbe09f32a	-0.13471666
107	0xbdd1c4c3	-0.102426074
108	0x3d388d3e	0.045056574
109	0x3d549d45	0.051907796
110	0x3c62faf8	0.013853781
111	0x3dfdac03	0.12386324
112	0xbdf60f8b	-0.12014683
113	0x3ce0a66e	0.02742311
114	0xbd9d3dae	-0.0767778
115	0x3d93356f	0.07187926
116	0x3d77ea15	0.060525972
117	0xbde70df9	-0.11281962
118	0xbdbab009	-0.09115607
119	0xbd12482f	-0.03571337
120	0xbc6791d5	-0.01413389
121	0xbd531380	-0.05153227
122	0xbde0be62	-0.10973813
123	0x3e22d41e	0.15901229
124	0xbe31cc10	-0.17363
125	0x3da0d6e5	0.07853488
126	0x3d12d5df	0.035848495
127	0xbdfafed0	-0.12255633
128	0x3ddd503e	0.108063206
129	0x3b88d08e	0.0041752523
130	0xbdc6b5f4	-0.097026736
131	0x3d8cdaad	0.068776466
132	0xbe175eee	-0.14782307
133	0x3d8b9ec3	0.06817391
134	0xbe1d1e83	-0.1534367
135	0xbca5fcdf	-0.02026218
136	0x3d862dc9	0.065517016
137	0xbddc7f43	-0.10766461
138	0x3e2d5916	0.16928515
139	0x3dde3bbd	0.10851238
140	0x3da2f48e	0.07956801
141	0x3ddd125e	0.10794519
142	0x3c42c8ca	0.011888692
143	0xbd9db36e	-0.07700239
144	0xbe0ba0ca	-0.13635555
145	0xbbe34326	-0.006935495
146	0xbdbbed1b	-0.09176084
147	0x3e09d281	0.13459207
148	0x3dc1c986	0.09462266
149	0x3e0623bf	0.13099574
150	0xbd144ac8	-0.03620413
151	0xbe0e8b7d	-0.13920398
152	0x3c8f3781	0.017482521
153	0xbd90af83	-0.07064726
154	0xbde8eeb2	-0.113736525
155	0xbd71994d	-0.05898409
156	0x3da9f658	0.082989395
157	0x3d8caf15	0.06869332
158	0xbd9f7731	-0.07786406
159	0xbbac6f8a	-0.00526232
160	0x3e08e67c	0.13369173
161	0xbe314b17	-0.17313801
162	0xbd848e95	-0.06472508
163	0x3e2b149a	0.16707078
164	0xba94cd23	-0.0011352639
165	0x3dbec040	0.093140125
166	0xbc352112	-0.011055248
167	0x3dc835d6	0.097758934
168	0xbd20ddc5	-0.039273996
169	0x3e090b6c	0.13383263
170	0xbd2802a3	-0.04101814
171	0x3e09dd6c	0.13463372
172	0x3df61dba	0.12017389
173	0x3e25d53e	0.16194627
174	0xbe1141fb	-0.14185326
175	0xbe16cff4	-0.14727765
176	0xbe18c06f	-0.14917158
177	0x3c2b9884	0.010473374
178	0xbd81aca1	-0.063317545
179	0x3b6f7a0b	0.003654125
180	0x3d2628d6	0.040566288
181	0xbe1c0b3f	-0.15238665
182	0xbd1ac56e	-0.03778594
183	0xbd8f0484	-0.06983283
184	0x3dbed187	0.09317308
185	0x3caa8d08	0.020819202
186	0xbd8d5e8a	-0.069027975
187	0xbe2b3c23	-0.16722159
188	0xbe26240f	-0.16224693
189	0x3e0a603f	0.13513277
190	0xbda83812	-0.082138196
191	0xbe18f73d	-0.14938064
192	0x3d898998	0.06715697
193	0xbe01e2cb	-0.12684171
194	0xbe01d317	-0.1267818
195	0xbd915c05	-0.070976295
196	0x3e10ddd8	0.14147127
197	0xbd11b6c0	-0.035574675
198	0x3de39cdc	0.11113903
199	0xbd6d6b0c	-0.057963416
200	0x3e0ea630	0.13930583
201	0x3c7f4c8a	0.015582213
202	0xbdf34cf9	-0.11879916
203	0x3d9001fb	0.07031628
204	0x3cbc7bef	0.023008315
205	0xbda62dda	-0.08114214
206	0xbc9ee585	-0.019396553
207	0x3c4569e0	0.012049168
208	0x3d2674d9	0.04063878
209	0xbdb45ab4	-0.08806363
210	0x3e0f701c	0.1400761
211	0xbe1f5cec	-0.1556279
212	0xbcf2234e	-0.02955785
213	0xbe0f8e87	-0.14019214
214	0xbe1719f8	-0.14756
215	0x3e39b394	0.1813491
216	0xbe021800	-0.12704468
217	0x3dd6085d	0.10450814
218	0xbdadcb51	-0.08486045
219	0xbe30f3b5	-0.17280467
220	0xbc824fdd	-0.015907222
221	0x3d7400ac	0.059570953
222	0xbe1e0799	-0.15432586
223	0xbde172b3	-0.11008205
224	0xbddc517b	-0.10757729
225	0x3d6307a9	0.055427227
226	0x3e2928d8	0.16519487
227	0xbdd0a5e5	-0.10187892
228	0x3d94c305	0.072637595
229	0x3e338f65	0.1753517
230	0x3e03ddf9	0.12877645
231	0xbd501b96	-0.050807558
232	0xbddf5a26	-0.10905866
233	0x3d137e28	0.036008984
234	0xbda32a1f	-0.07967018
235	0x3da0c43e	0.0784993
236	0x3dfebeab	0.12438711
237	0x3db66d7d	0.08907602
238	0x3d03780b	0.032096904
239	0xbdf6fe57	-0.1206023
240	0xbd010340	-0.03149724
241	0xbda456d2	-0.08024372
242	0xbd6c052f	-0.05762213
243	0x3c05af3f	0.008159458
244	0x3e1a4ce9	0.15068401
245	0xbb562af0	-0.0032679401
246	0x3d9c0fc0	0.076201916
247	0x3db05302	0.086095825
248	0x3de0e8c3	0.10981896
249	0xbe253bd1	-0.161361
250	0xbdbd68d8	-0.09248513
251	0x3da6fa96	0.08153264
252	0xbe01ef15	-0.12688859
253	0x3d4d3fad	0.050109554
254	0xbe2ad46f	-0.166826
255	0xbd1e0281	-0.038576607

model.0.bias f4 [16]
0	0xbe2d100b	-0.16900651
1	0x3d45a587	0.048253562
2	0x3d157c99	0.03649578
3	0xbd55cc5c	-0.052196845
4	0xbc929e13	-0.017897641
5	0x3daa2b13	0.08308997
6	0x3ce5ca32	0.028050516
7	0x3dc9e5f7	0.098583154
8	0x3e1e26db	0.1544451
9	0x3cb66b68	0.022268012
10	0x3e07cb8c	0.1326124
11	0x3dc7b301	0.09750939
12	0x3cb8d49e	0.022562321
13	0xbe259e10	-0.16173577
14	0x3c9083fb	0.017641058
15	0x3e0f4440	0.13990879

model.1.weight f4 [4, 16]
0	0xbe002871	-0.12515427
1	0x3d8ea981	0.06965924
2	0x3e10329f	0.1408181
3	0x3d41bfa6	0.04730191
4	0x3d497262	0.04918135
5	0x3e2b71a6	0.16742572
6	0xbdadaa8d	-0.084797956
7	0x3e54fecd	0.20800324
8	0xbe27e71c	-0.16396755
9	0x3d442208	0.047884017
10	0x3d6e5866	0.058189772
11	0x3d3ad08a	0.045609035
12	0xbe34987a	-0.1763629
13	0x3e4606f9	0.19338597
14	0x3cc4a71e	0.024005469
15	0xbcc5c26b	-0.024140557
16	0xbe1e344e	-0.1544964
17	0xbd63e1c9	-0.055635247
18	0x3e02094c	0.12698859
19	0xbcb87c5d	-0.022520239
20	0xbe836603	-0.25663766
21	0xbd23b31b	-0.03996573
22	0xbe70d163	-0.23517375
23	0xbe308e81	-0.17241861
24	0xbe00b685	-0.12569626
25	0xbe3a14c8	-0.1817199
26	0x3d9d45b5	0.07679311
27	0x3e1d27bd	0.1534719
28	0x3e184792	0.14871052
29	0xbd6bebc4	-0.05759789
30	0xbd276862	-0.04087103
31	0xbe6c9c8f	-0.23106597
32	0x3e2f8836	0.17141804
33	0xbd10bb25	-0.035334725
34	0xbe4286cf	-0.18996738
35	0x3d8917d7	0.06694
36	0xbe12ee58	-0.14348733
37	0xbe1dfb31	-0.15427853
38	0xbe6e13ec	-0.23249787
39	0xbe5e048e	-0.21681425
40	0x3df184ed	0.11792932
41	0x3e74db1f	0.23911713
42	0xbe036b83	-0.12833981
43	0xbe6da0f8	-0.23205936
44	0xbccbb26f	-0.024865357
45	0xbe04a5b1	-0.12953831
46	0x3e05b5dd	0.13057657
47	0x3d09b0b6	0.03361579
48	0x3d0e7b6b	0.03478567
49	0xbd483998	-0.04888305
50	0xbc9c5d54	-0.019087471
51	0xbd829e23	-0.063778184
52	0xbdfbc994	-0.12294307
53	0x3d7f7236	0.06236478
54	0xbdb99529	-0.09061653
55	0xbe7ad7ef	-0.24496435
56	0xbd842758	-0.06452817
57	0x3e8196cb	0.25310358
58	0xbdf6696d	-0.12031827
59	0xbe026c7c	-0.12736696
60	0xbe2e2953	-0.17007951
61	0xbe1a9216	-0.1509479
62	0x3d1eef45	0.038802404
63	0x3e82d666	0.25554198

model.1.bias f4 [4]
0	0x3e03fc99	0.12889327
1	0x3e480379	0.19532575
2	0xbe2ffe5a	-0.17186871
3	0xbd85ade0	-0.06527305
