model/pure_score_model9.pt (torch, 4123 bytes, 4 tensors)

model.0.weight f4 [16, 32]
-0.15950505 -0.09854056 0.00719889 -0.042098973 0.026139865 -0.093200885 -0.11128583 0.0047416477
-0.012774675 -0.08646086 -0.1655025 -0.13836417 -0.08109428 -0.08915028 -0.053476386 0.17269205
-0.09298893 -0.08194613 -0.085179545 -0.05939838 0.10767975 -0.057039842 0.1461942 -0.015170414
0.044974227 -0.1413693 -0.055386268 0.050916344 -0.012196853 0.13209786 0.031504344 0.02625567
0.15431604 -0.07457641 -0.12853009 0.019500801 -0.057781823 -0.16676652 0.1436684 -0.013659922
0.087921225 -0.13130702 -0.042462956 -0.03447447 0.15515904 -0.065313265 0.08690792 -0.05898855
0.00030563568 0.06753779 -0.0981082 0.1648016 -0.102658115 0.13521624 -0.0993371 0.07607546
0.04145416 0.025719846 0.006971915 -0.12928778 0.1331613 -0.16482235 0.023236547 -0.033318676
0.003108671 -0.057005562 -0.13929483 -0.020749034 -0.103949346 0.022464996 -0.093322255 0.13788107
-0.046755366 0.12500802 0.08556315 -0.065612994 0.16161813 -0.079648785 -0.16465282 0.09539245
0.10915356 -0.108655475 0.009761359 0.02016504 0.05531859 -0.18225126 0.03145557 -0.11591487
0.08733451 0.044146925 0.043014716 -0.015239877 0.10263189 0.098134086 0.10621219 0.058138598
-0.04880042 0.13767922 -0.16430368 -0.1179966 -0.039066948 -0.112130664 0.019560859 -0.16720845
0.13828704 0.03346153 -0.13471666 -0.102938205 0.044921808 0.051907796 0.013853781 0.12386324
-0.12014683 0.027728034 -0.0767778 0.07231054 0.061192364 -0.1127068 -0.09115607 -0.03571337
-0.014162158 -0.05153227 -0.11039656 0.15885328 -0.17345811 0.07853488 0.035848495 -0.12255633
0.10773902 0.0041752523 -0.0980068 0.068776466 -0.14723177 0.06817391 -0.15575823 -0.020201938
0.06604538 -0.10723566 0.16928515 0.109608464 0.08020969 0.1101259 0.011888692 -0.07738934
-0.13690317 -0.0069424375 -0.09111851 0.13459207 0.09368515 0.13034075 -0.03616778 -0.13920398
0.017465057 -0.07085984 -0.113736525 -0.05893046 0.0827401 0.06869332 -0.07786406 -0.00526232
0.13504092 -0.17366838 -0.0647898 0.16707078 -0.0011352639 0.093140125 -0.011055248 0.097661175
-0.039273996 0.13437012 -0.04101814 0.13463372 0.12077778 0.16194627 -0.14043473 -0.14580753
-0.14872798 0.010473374 -0.06319116 0.0037092122 0.040485155 -0.15407781 -0.03748365 -0.07032511
0.09401925 0.020965964 -0.069027975 -0.1682189 -0.16126907 0.13459225 -0.08238461 -0.1470095
0.06729128 -0.12684171 -0.12690859 -0.070976295 0.14048181 -0.035574675 0.11113903 -0.057963416
0.13860595 0.015597795 -0.117277004 0.07031628 0.023008315 -0.08195356 -0.019396553 0.012049168
0.04059818 -0.08727106 0.1400761 -0.1556279 -0.02955785 -0.14019214 -0.14580072 0.18116775
-0.12704468 0.10524485 -0.08486045 -0.17455018 -0.01584418 0.059570953 -0.15370855 -0.11008205
-0.10757729 0.05503924 0.16519487 -0.10187892 0.072637595 0.17605592 0.12877645 -0.050807558
-0.10905866 0.036114488 -0.07959775 0.0784993 0.12437914 0.08907602 0.032064807 -0.11999929
-0.03149724 -0.079924025 -0.057967864 0.008110468 0.15113743 -0.0032288812 0.075746976 0.086095825
0.10981896 -0.1646178 -0.09211666 0.08153264 -0.12587348 0.050109554 -0.166826 -0.038384683
00000000: 4b55 23be a2cf c9bd abe4 eb3b f96f 2cbd
00000010: 4523 d63c 1be0 bebd d3e9 e3bd d35f 9b3b
00000020: df4c 51bc 6412 b1bd 7d79 29be 56af 0dbe
00000030: c214 a6bd 6c94 b6bd 0e0a 5bbd 2fd6 303e
00000040: fb70 bebd 5fd3 a7bd 9d72 aebd b74b 73bd
00000050: 3387 dc3d 9ca2 69bd efb3 153e 548d 78bc
00000060: e536 383d 1dc3 10be b6dc 62bd a88d 503d
00000070: 4fd5 47bc a944 073e b30a 013d 2116 d73c
00000080: 0605 1e3e 84bb 98bd 649d 03be 25c0 9f3c
00000090: a2ac 6cbd d8c4 2abe cf1d 133e decd 5fbc
000000a0: 0b10 b43d 5975 06be a3ed 2dbd 1a35 0dbd
000000b0: 03e2 1e3e f6c2 85bd c8fc b13d fa9d 71bd
000000c0: ba3d a039 4151 8a3d f4ec c8bd c0c1 283e
000000d0: 6b3e d2bd 2076 0a3e 4071 cbbd 73cd 9b3d
000000e0: d6cb 293d 6db2 d23c a974 e43b 0464 04be
000000f0: 705b 083e 31c7 28be 925a be3c 2a79 08bd
00000100: d8ba 4b3b aa7e 69bd 4ea3 0ebe e1f9 a9bc
00000110: 65e3 d4bd 8308 b83c bd1f bfbd b230 0d3e
00000120: 8e82 3fbd 1a02 003e bc3b af3d 1b60 86bd
00000130: 397f 253e e71e a3bd c09a 28be 1e5d c33d
00000140: e78b df3d c386 debd 1bee 1f3c 2731 a53c
00000150: bf95 623d 13a0 3abe 8ed7 003d c664 edbd
00000160: 70dc b23d 68d3 343d 3330 303d adb0 79bc
00000170: ab30 d23d 86fa c83d c785 d93d bd22 6e3d
00000180: f3e2 47bd c8fb 0c3e 393f 28be 34a8 f1bd
00000190: aa04 20bd c3a4 e5bd 183e a03c b138 2bbe
000001a0: 1e9b 0d3e f50e 093d 2af3 09be 44d1 d2bd
000001b0: eeff 373d 459d 543d f8fa 623c 03ac fd3d
000001c0: 8b0f f6bd e725 e33c ae3d 9dbd 8c17 943d
000001d0: d8a4 7a3d d3d2 e6bd 09b0 babd 2f48 12bd
000001e0: 6508 68bc 8013 53bd 9717 e2bd 6faa 223e
000001f0: 019f 31be e5d6 a03d dfd5 123d d0fe fabd
00000200: 46a6 dc3d 8ed0 883b cab7 c8bd adda 8c3d
00000210: edc3 16be c39e 8b3d 167f 1fbe 897e a5bc
00000220: cd42 873d 5f9e dbbd 1659 2d3e 677a e03d
00000230: fa44 a43d b089 e13d cac8 423c 4d7e 9ebd
00000240: 5830 0cbe 637d e3bb 579c babd 81d2 093e
00000250: 00de bf3d 0c78 053e ab24 14bd 7d8b 0ebe
00000260: e112 8f3c f71e 91bd b2ee e8bd 1161 71bd
00000270: a473 a93d 15af 8c3d 3177 9fbd 8a6f acbb
00000280: 2b48 0a3e 20d6 31be 84b0 84bd 9a14 2b3e
00000290: 23cd 94ba 40c0 be3d 1221 35bc 9502 c83d
000002a0: c5dd 20bd 5298 093e a302 28bd 6cdd 093e
000002b0: 575a f73d 3ed5 253e 1fce 0fbe 924e 15be
000002c0: 264c 18be 8498 2b3c 5e6a 81bd 4116 733b
000002d0: c3d3 253d 93c6 1dbe 7588 19bd 9c06 90bd
000002e0: 2a8d c03d d0c0 ab3c 8a5e 8dbd 9341 2cbe
000002f0: b823 25be 8dd2 093e 43b9 a8bd a989 16be
00000300: 03d0 893d cbe2 01be 53f4 01be 055c 91bd
00000310: 77da 0f3e c0b6 11bd dc9c e33d 0c6b 6dbd
00000320: b8ee 0d3e e58d 7f3c ed2e f0bd fb01 903d
00000330: ef7b bc3c 45d7 a7bd 85e5 9ebc e069 453c
00000340: 474a 263d 2bbb b2bd 1c70 0f3e ec5c 1fbe
00000350: 4e23 f2bc 878e 0fbe c94c 15be 0a84 393e
00000360: 0018 02be 9d8a d73d 51cb adbd 48bd 32be
00000370: a7cb 81bc ac00 743d c665 1dbe b372 e1bd
00000380: 7b51 dcbd d370 613d d828 293e e5a5 d0bd
00000390: 05c3 943d 0148 343e f9dd 033e 961b 50bd
000003a0: 265a dfbd c9ec 133d 2504 a3bd 3ec4 a03d
000003b0: 7eba fe3d 7d6d b63d 6356 033d 30c2 f5bd
000003c0: 4003 01bd 35af a3bd b66f 6dbd c5e1 043c
000003d0: c5c3 1a3e a39b 53bb 3b21 9b3d 0253 b03d
000003e0: c3e8 e03d 9291 28be a9a7 bcbd 96fa a63d
000003f0: fae4 00be ad3f 4d3d 6fd4 2abe 4239 1dbd

model.0.bias f4 [16]
-0.16766518 0.048253562 0.036422934 -0.052196845 -0.017632274 0.08308997 0.028050516 0.098583154
0.1544451 0.02240162 0.1326124 0.09868146 0.022562321 -0.16302966 0.017641058 0.13866085
00000000: 6cb0 2bbe 87a5 453d 3730 153d 5ccc 55bd
00000010: 8f71 90bc 132b aa3d 32ca e53c f7e5 c93d
00000020: db26 1e3e 9a83 b73c 8ccb 073e 8119 ca3d
00000030: 9ed4 b83c 3ff1 26be fb83 903c 1cfd 0d3e

model.1.weight f4 [4, 16]
-0.12515427 0.06965924 0.1408181 0.047682658 0.04923053 0.16626188 -0.084797956 0.20821145
-0.16446161 0.047884017 0.058189772 0.045609035 -0.1763629 0.19319394 0.024005469 -0.023876166
-0.15311834 -0.055635247 0.12749654 -0.022520239 -0.25663766 -0.04016556 -0.23634961 -0.17346251
-0.12569626 -0.1817199 0.07679311 0.15393403 0.15004891 -0.05759789 -0.04087103 -0.23176543
0.17244655 -0.035334725 -0.18996738 0.066270605 -0.1414956 -0.15427853 -0.23180246 -0.21724787
0.11792932 0.23933421 -0.12833981 -0.23205936 -0.0246913 -0.12953831 0.13057657 0.03361579
0.03496047 -0.04888305 -0.019087471 -0.0632059 -0.121713646 0.06236478 -0.09061653 -0.24496435
-0.06491534 0.25512612 -0.12031827 -0.12736696 -0.17043062 -0.1509479 0.038919162 0.25554198
00000000: 7128 00be 81a9 8e3d 9f32 103e e44e 433d
00000010: f4a5 493d 8e40 2a3e 8daa adbd 6235 553e
00000020: a068 28be 0822 443d 6658 6e3d 8ad0 3a3d
00000030: 7a98 34be a2d4 453e 1ea7 c43c f397 c3bc
00000040: 0ecb 1cbe c9e1 63bd 748e 023e 5d7c b8bc
00000050: 0366 83be a484 24bd a205 72be 28a0 31be
00000060: 85b6 00be c814 3abe b545 9d3d e2a0 1d3e
00000070: 6ca6 193e c4eb 6bbd 6268 27bd eb53 6dbe
00000080: d495 303e 25bb 10bd cf86 42be e2b8 873d
00000090: 39e4 10be 31fb 1dbe a05d 6dbe 3a76 5ebe
000000a0: ed84 f13d 0714 753e 836b 03be f8a0 6dbe
000000b0: 6945 cabc b1a5 04be ddb5 053e b6b0 093d
000000c0: b632 0f3d 9839 48bd 545d 9cbc 1872 81bd
000000d0: 0145 f9bd 3672 7f3d 2995 b9bd efd7 7abe
000000e0: 55f2 84bd e49f 823e 6d69 f6bd 7c6c 02be
000000f0: 5d85 2ebe 1692 1abe b369 1f3d 66d6 823e

model.1.bias f4 [4]
0.12876886 0.19571875 -0.17186871 -0.0657295
00000000: fcdb 033e 7f6a 483e 5afe 2fbe 309d 86bd
