model/pure_score_model8.pt (torch, 4123 bytes, 4 tensors)

model.0.weight f4 [16, 32]
000000 1c d3 23 be a2 cf c9 bd aa 9b ec 3b 45 fd 2d bd
       -0.159985 -0.09854056 0.007220705 -0.042477865
000010 89 12 d5 3c ea 0e bf bd 5e 01 e3 bd 11 d2 99 3b
       0.026009815 -0.093290165 -0.11084245 0.0046942313
000020 df 4c 51 bc 64 12 b1 bd 7d 79 29 be 78 8f 0c be
       -0.012774675 -0.08646086 -0.1655025 -0.13726604
000030 21 49 a3 bd 6c 94 b6 bd 0e 0a 5b bd 72 e7 31 3e
       -0.079729326 -0.08915028 -0.053476386 0.17373446
000040 fb 70 be bd 5f d3 a7 bd 9d 72 ae bd b7 4b 73 bd
       -0.09298893 -0.08194613 -0.085179545 -0.05939838
000050 22 6c db 3d 79 09 6b bd d8 4d 16 3e 05 cd 78 bc
       0.10713984 -0.05738208 0.14678133 -0.015185599
000060 e5 36 38 3d 1d c3 10 be b6 dc 62 bd 6f b1 4e 3d
       0.044974227 -0.1413693 -0.055386268 0.050462183
000070 cb 09 49 bc a9 44 07 3e b3 0a 01 3d 21 16 d7 3c
       -0.012270401 0.13209786 0.031504344 0.02625567
000080 b6 b3 1d 3e 51 d2 97 bd c5 68 04 be 25 c0 9f 3c
       0.15400586 -0.074131615 -0.12930591 0.019500801
000090 9c ad 6c bd d8 c4 2a be 09 90 13 3e 83 d1 61 bc
       -0.057782754 -0.16676652 0.14410414 -0.013782862
0000a0 65 58 b3 3d 59 75 06 be 67 fa 2e bd 1a 35 0d bd
       0.08757094 -0.13130702 -0.04271927 -0.03447447
0000b0 03 e2 1e 3e 6b 90 86 bd e0 9f ae 3d fa 9d 71 bd
       0.15515904 -0.06570514 0.085265875 -0.05898855
0000c0 ba 3d a0 39 41 51 8a 3d 84 8c cb bd b0 cf 2a 3e
       0.00030563568 0.06753779 -0.099389106 0.16680789
0000d0 69 fd d0 bd 20 76 0a 3e 40 71 cb bd 73 cd 9b 3d
       -0.10204584 0.13521624 -0.0993371 0.07607546
0000e0 d6 cb 29 3d 6d b2 d2 3c 74 28 e0 3b 04 64 04 be
       0.04145416 0.025719846 0.00684076 -0.12928778
0000f0 70 5b 08 3e 31 c7 28 be 92 5a be 3c 2a 79 08 bd
       0.1331613 -0.16482235 0.023236547 -0.033318676
000100 d8 ba 4b 3b aa 7e 69 bd e9 ec 0d be e1 f9 a9 bc
       0.003108671 -0.057005562 -0.13859905 -0.020749034
000110 e5 09 d7 bd 60 b4 b9 3c bd 1f bf bd d5 11 0c 3e
       -0.10499934 0.022669017 -0.093322255 0.13678677
000120 8e 82 3f bd 1a 23 00 3e 8d 5c ae 3d 1b 60 86 bd
       -0.046755366 0.1251339 0.085137464 -0.065612994
000130 7d 2a 25 3e e7 1e a3 bd c0 9a 28 be 09 6a c1 3d
       0.16129489 -0.079648785 -0.16465282 0.09444053
000140 9f 60 e3 3d c3 86 de bd 1b ee 1f 3c 77 83 a6 3c
       0.111024134 -0.108655475 0.009761359 0.02032636
000150 b8 73 61 3d 13 a0 3a be d9 95 00 3d c6 64 ed bd
       0.055042 -0.18225126 0.031392906 -0.11591487
000160 70 dc b2 3d 68 d3 34 3d 33 30 30 3d 46 73 7b bc
       0.08733451 0.044146925 0.043014716 -0.015347308
000170 ab 30 d2 3d 86 fa c8 3d db 46 db 3d aa 9c 6e 3d
       0.10263189 0.098134086 0.10706874 0.058254875
000180 f1 ea 44 bd c8 fb 0c 3e 39 3f 28 be a5 a7 f1 bd
       -0.04807562 0.13767922 -0.16430368 -0.11799554
000190 aa 04 20 bd c3 a4 e5 bd 18 3e a0 3c 30 c3 2c be
       -0.039066948 -0.112130664 0.019560859 -0.16871333
0001a0 a0 74 0e 3e f5 0e 09 3d 51 54 0b be c3 c4 d1 bd
       0.13911676 0.03346153 -0.13606383 -0.102426074
0001b0 3e 8d 38 3d 45 9d 54 3d e8 45 65 3c 22 2a fd 3d
       0.045056574 0.051907796 0.013993718 0.12361552
0001c0 8b 0f f6 bd 7e ff e1 3c 6d 15 9d bd 6f 35 93 3d
       -0.12014683 0.027587648 -0.07670102 0.07187926
0001d0 8c 29 78 3d d3 d2 e6 bd 09 b0 ba bd df 28 13 bd
       0.060586497 -0.1127068 -0.09115607 -0.03592765
0001e0 65 08 68 bc 80 13 53 bd 62 be e0 bd 1e d4 22 3e
       -0.014162158 -0.05153227 -0.10973813 0.15901229
0001f0 21 3b 33 be ac b6 9f 3d df d5 12 3d d0 fe fa bd
       -0.17503025 0.07798514 0.035848495 -0.12255633
000200 3e 50 dd 3d 8e d0 88 3b ca b7 c8 bd ad da 8c 3d
       0.108063206 0.0041752523 -0.0980068 0.068776466
000210 ee 5e 17 be b4 bc 8c 3d 41 63 1e be bc 7c a6 bc
       -0.14782307 0.0687193 -0.1546755 -0.02032315
000220 cd 42 87 3d 5f 9e db bd 16 59 2d 3e 67 7a e0 3d
       0.06604538 -0.10723566 0.16928515 0.109608464
000230 2b 41 a6 3d 9d 4d db 3d ca c8 42 3c 4d 7e 9e bd
       0.081178986 0.10708163 0.011888692 -0.07738934
000240 58 30 0c be 63 7d e3 bb 1b ed bb bd 81 d2 09 3e
       -0.13690317 -0.0069424375 -0.09176084 0.13459207
000250 86 c9 c1 3d 11 df 05 3e a1 4a 14 bd 7d 8b 0e be
       0.09462266 0.13073374 -0.036203984 -0.13920398
000260 e1 12 8f 3c 83 af 90 bd 6f 77 e8 bd 4d 99 71 bd
       0.017465057 -0.07064726 -0.11350905 -0.05898409
000270 58 f6 a9 3d 15 af 8c 3d 31 77 9f bd d5 fc ad bb
       0.082989395 0.06869332 -0.07786406 -0.005309681
000280 2b 48 0a 3e 20 d6 31 be 84 b0 84 bd 9a 14 2b 3e
       0.13504092 -0.17366838 -0.0647898 0.16707078
000290 23 cd 94 ba 40 c0 be 3d 12 21 35 bc 7b d0 c9 3d
       -0.0011352639 0.093140125 -0.011055248 0.098542176
0002a0 c5 dd 20 bd 52 98 09 3e a3 02 28 bd 6c dd 09 3e
       -0.039273996 0.13437012 -0.04101814 0.13463372
0002b0 57 5a f7 3d 3e d5 25 3e 1f ce 0f be 04 5c 16 be
       0.12077778 0.16194627 -0.14043473 -0.14683539
0002c0 26 4c 18 be 8e 8d 29 3c 5e 6a 81 bd 0b 7a 6f 3b
       -0.14872798 0.010348691 -0.06319116 0.003654125
0002d0 d6 28 26 3d ce ad 1c be 6e c5 1a bd 63 29 8f bd
       0.040566288 -0.15300676 -0.03778594 -0.06990316
0002e0 87 d1 be 3d d0 c0 ab 3c 8a 5e 8d bd 93 41 2c be
       0.09317308 0.020965964 -0.069027975 -0.1682189
0002f0 0f 24 26 be 3f 60 0a 3e c0 60 a7 bd a9 89 16 be
       -0.16224693 0.13513277 -0.081727505 -0.1470095
000300 09 9f 87 3d cb e2 01 be 17 d3 01 be 05 5c 91 bd
       0.066221304 -0.12684171 -0.1267818 -0.070976295
000310 ac 93 10 3e c0 b6 11 bd dc 9c e3 3d 0c 6b 6d bd
       0.14118832 -0.035574675 0.11113903 -0.057963416
000320 30 a6 0e 3e 8a 4c 7f 3c 13 a2 f1 bd fb 01 90 3d
       0.13930583 0.015582213 -0.11798491 0.07031628
000330 33 f9 ba 3c da 2d a6 bd 85 e5 9e bc 6a 9c 45 3c
       0.022823906 -0.08114214 -0.019396553 0.012061218
000340 d9 74 26 3d 2b bb b2 bd 1c 70 0f 3e ec 5c 1f be
       0.04063878 -0.08727106 0.1400761 -0.1556279
000350 4e 23 f2 bc 87 8e 0f be f8 19 17 be 1a 08 38 3e
       -0.02955785 -0.14019214 -0.14756 0.1797184
000360 00 18 02 be 5d 08 d6 3d 51 cb ad bd 48 bd 32 be
       -0.12704468 0.10450814 -0.08486045 -0.17455018
000370 dd 4f 82 bc ac 00 74 3d c6 65 1d be fc 38 e1 bd
       -0.015907222 0.059570953 -0.15370855 -0.10997197
000380 7b 51 dc bd a9 07 63 3d d8 28 29 3e e5 a5 d0 bd
       -0.10757729 0.055427227 0.16519487 -0.10187892
000390 c6 94 93 3d 01 48 34 3e f9 dd 03 3e 96 1b 50 bd
       0.07206111 0.17605592 0.12877645 -0.050807558
0003a0 14 03 de bd c9 ec 13 3d 25 04 a3 bd b8 16 a1 3d
       -0.10840431 0.036114488 -0.07959775 0.078656614
0003b0 ab be fe 3d 7d 6d b6 3d f3 a6 04 3d 30 c2 f5 bd
       0.12438711 0.08907602 0.032385778 -0.11999929
0003c0 40 03 01 bd 35 af a3 bd b6 6f 6d bd 3d 7b 04 3c
       -0.03149724 -0.079924025 -0.057967864 0.008086023
0003d0 e9 4c 1a 3e 4c c2 52 bb 3b 21 9b 3d 02 53 b0 3d
       0.15068401 -0.0032159267 0.075746976 0.086095825
0003e0 c3 e8 e0 3d 01 66 26 be 6b 65 ba bd 4e 7b a8 3d
       0.10981896 -0.16249849 -0.09101375 0.082266435
0003f0 15 ef 01 be ad 3f 4d 3d 33 26 2a be 81 02 1e bd
       -0.12688859 0.050109554 -0.16616134 -0.038576607

model.0.bias f4 [16]
000000 6f b7 2c be 87 a5 45 3d 37 30 15 3d 5c cc 55 bd
       -0.1686685 0.048253562 0.036422934 -0.052196845
000010 8f 71 90 bc b2 25 a9 3d 32 ca e5 3c f7 e5 c9 3d
       -0.017632274 0.08259143 0.028050516 0.098583154
000020 db 26 1e 3e c7 f8 b6 3c 8c cb 07 3e 81 19 ca 3d
       0.1544451 0.022335423 0.1326124 0.09868146
000030 9e d4 b8 3c 3f f1 26 be fb 83 90 3c 1c fd 0d 3e
       0.022562321 -0.16302966 0.017641058 0.13866085

model.1.weight f4 [4, 16]
000000 71 28 00 be 81 a9 8e 3d 9f 32 10 3e e4 4e 43 3d
       -0.12515427 0.06965924 0.1408181 0.047682658
000010 62 72 49 3d 8e 40 2a 3e 8d aa ad bd 62 35 55 3e
       0.04918135 0.16626188 -0.084797956 0.20821145
000020 c4 bd 26 be 67 8b 43 3d be b7 71 3d 8a d0 3a 3d
       -0.16283327 0.047740366 0.05901312 0.045609035
000030 02 85 33 be f9 06 46 3e 1e a7 c4 3c f3 97 c3 bc
       -0.17531207 0.19338597 0.024005469 -0.023876166
000040 0e cb 1c be c9 e1 63 bd 67 bc 00 3e 5d 7c b8 bc
       -0.15311834 -0.055635247 0.1257187 -0.022520239
000050 03 66 83 be 1b b3 23 bd 63 d1 70 be 28 a0 31 be
       -0.25663766 -0.03996573 -0.23517375 -0.17346251
000060 2c 9d 01 be c8 14 3a be b5 45 9d 3d 1d 95 1e 3e
       -0.12657613 -0.1817199 0.07679311 0.1548657
000070 92 47 18 3e c4 eb 6b bd 62 68 27 bd df 6d 6b be
       0.14871052 -0.05759789 -0.04087103 -0.22991131
000080 36 88 2f 3e 25 bb 10 bd cf 86 42 be e2 b8 87 3d
       0.17141804 -0.035334725 -0.18996738 0.066270605
000090 39 e4 10 be 31 fb 1d be a0 5d 6d be 8e 04 5e be
       -0.1414956 -0.15427853 -0.23180246 -0.21681425
0000a0 ed 84 f1 3d 07 14 75 3e 83 6b 03 be a2 87 6f be
       0.11792932 0.23933421 -0.12833981 -0.23391584
0000b0 6f b2 cb bc b1 a5 04 be dd b5 05 3e b6 b0 09 3d
       -0.024865357 -0.12953831 0.13057657 0.03361579
0000c0 58 10 0e 3d 98 39 48 bd 54 5d 9c bc 89 7a 82 bd
       0.034683555 -0.04888305 -0.019087471 -0.06371028
0000d0 94 c9 fb bd 36 72 7f 3d 1b 78 b8 bd ef d7 7a be
       -0.12294307 0.06236478 -0.09007283 -0.24496435
0000e0 27 c2 83 bd 38 6c 80 3e 6d 69 f6 bd 7c 6c 02 be
       -0.06433516 0.25082564 -0.12031827 -0.12736696
0000f0 5d 85 2e be 3a e1 1a be b3 69 1f 3d 66 d6 82 3e
       -0.17043062 -0.1512498 0.038919162 0.25554198

model.1.bias f4 [4]
000000 fc db 03 3e 7f 6a 48 3e 5a fe 2f be e0 ad 85 bd
       0.12876886 0.19571875 -0.17186871 -0.06527305
