model/pure_score_model5.pt (torch, 4123 bytes, 4 tensors)

model.0.weight f4 [16, 32]
-0.15950505 -0.09854056 0.007220705 -0.042098973 0.026009815 -0.09348049 -0.11084245 0.0047416477
-0.012774675 -0.08646086 -0.1655025 -0.13726604 -0.079729326 -0.08835192 -0.05368944 0.17269826
-0.092804424 -0.082683645 -0.083910994 -0.05939838 0.10767975 -0.057039842 0.1469281 -0.015185599
0.044974227 -0.1413693 -0.055386268 0.050966803 -0.012196853 0.13209786 0.031504344 0.02625567
0.15400586 -0.07436311 -0.12891799 0.019500801 -0.058131542 -0.16559915 0.1436684 -0.013646263
0.08757094 -0.13130702 -0.042462956 -0.034577895 0.15515904 -0.065313265 0.085265875 -0.05898855
0.00030319273 0.06753779 -0.0981082 0.16381869 -0.10204584 0.13521624 -0.09874463 0.07607546
0.041205432 0.025873754 0.006985878 -0.12928778 0.1331613 -0.16482235 0.023120364 -0.033318676
0.003108671 -0.057005562 -0.13929483 -0.020563958 -0.103949346 0.022464996 -0.093322255 0.13678677
-0.046755366 0.12588924 0.085137464 -0.065612994 0.16081004 -0.079648785 -0.16465282 0.09539245
0.111024134 -0.108655475 0.009770759 0.02016504 0.05531859 -0.18225126 0.031110935 -0.11591487
0.08698342 0.044590168 0.043014716 -0.015239877 0.10211873 0.098134086 0.10631978 0.058138598
-0.048509363 0.13767922 -0.1654538 -0.11906714 -0.039066948 -0.112130664 0.01952103 -0.16720845
0.13884018 0.03346153 -0.13742447 -0.102426074 0.044921808 0.051907796 0.013853781 0.12312006
-0.12014683 0.027923498 -0.0767778 0.0720213 0.061010182 -0.11281962 -0.091609664 -0.03571337
-0.014162158 -0.05204842 -0.10973813 0.15822119 -0.17345811 0.079561435 0.035848495 -0.12255633
0.10773902 0.004187778 -0.0980068 0.068776466 -0.14782307 0.0687193 -0.1522092 -0.02032315
0.06604538 -0.10723566 0.16928515 0.109608464 0.081178986 0.10794519 0.01199569 -0.079105034
-0.13690317 -0.0069910344 -0.09176084 0.13445748 0.09368515 0.13034075 -0.03616778 -0.13920398
0.017465057 -0.07142672 -0.11350905 -0.05887153 0.082989395 0.06869332 -0.07786406 -0.005309681
0.13504092 -0.17366838 -0.06472508 0.16707078 -0.0011352639 0.093140125 -0.011055248 0.097661175
-0.039273996 0.13531071 -0.04101814 0.13463372 0.12077778 0.16307989 -0.14227882 -0.14683539
-0.15067837 0.010473374 -0.063634135 0.0036724873 0.040890817 -0.15300676 -0.038089138 -0.07088771
0.09317308 0.020965964 -0.069027975 -0.16655336 -0.16224693 0.13513277 -0.082713164 -0.1470095
0.06715697 -0.12684171 -0.1267818 -0.070976295 0.14076278 -0.035574675 0.11158358 -0.058079343
0.13860595 0.015582213 -0.11798491 0.070667855 0.022869553 -0.08195356 -0.019396553 0.012049156
0.040760778 -0.08806363 0.1400761 -0.1550054 -0.02955785 -0.13963081 -0.14653338 0.1813491
-0.12704468 0.10450814 -0.08477559 -0.17455018 -0.01582824 0.059570953 -0.15432586 -0.11008205
-0.10757729 0.055427227 0.16519487 -0.10187892 0.072782874 0.17605592 0.12877645 -0.051114243
-0.10905866 0.036008984 -0.07888137 0.078813925 0.12437914 0.08907602 0.032096904 -0.121205315
-0.03149724 -0.079924025 -0.057909377 0.008159458 0.15188949 -0.0032095078 0.075746976 0.086095825
0.10981896 -0.16363598 -0.09037665 0.08153264 -0.12688859 0.050109554 -0.16616134 -0.038384683
00000000: 4b55 23be a2cf c9bd aa9b ec3b f96f 2cbd
00000010: 8912 d53c b372 bfbd 5e01 e3bd d35f 9b3b
00000020: df4c 51bc 6412 b1bd 7d79 29be 788f 0cbe
00000030: 2149 a3bd daf1 b4bd 75e9 5bbd d0d7 303e
00000040: 3f10 bebd 0b56 a9bd 87d9 abbd b74b 73bd
00000050: 3387 dc3d 9ca2 69bd 5274 163e 05cd 78bc
00000060: e536 383d 1dc3 10be b6dc 62bd 91c2 503d
00000070: 4fd5 47bc a944 073e b30a 013d 2116 d73c
00000080: b6b3 1d3e b04b 98bd 1403 04be 25c0 9f3c
00000090: 571b 6ebd d392 29be cf1d 133e 9394 5fbc
000000a0: 6558 b33d 5975 06be a3ed 2dbd 8da1 0dbd
000000b0: 03e2 1e3e f6c2 85bd e09f ae3d fa9d 71bd
000000c0: d7f5 9e39 4151 8a3d f4ec c8bd 16c0 273e
000000d0: 69fd d0bd 2076 0a3e a03a cabd 73cd 9b3d
000000e0: 07c7 283d 32f5 d33c cbe9 e43b 0464 04be
000000f0: 705b 083e 31c7 28be eb66 bd3c 2a79 08bd
00000100: d8ba 4b3b aa7e 69bd 4ea3 0ebe bf75 a8bc
00000110: 65e3 d4bd 8308 b83c bd1f bfbd d511 0c3e
00000120: 8e82 3fbd 1ce9 003e 8d5c ae3d 1b60 86bd
00000130: 63ab 243e e71e a3bd c09a 28be 1e5d c33d
00000140: 9f60 e33d c386 debd 8915 203c 2731 a53c
00000150: bf95 623d 13a0 3abe 5cdc fe3c c664 edbd
00000160: 5d24 b23d 2ea4 363d 3330 303d adb0 79bc
00000170: a023 d13d 86fa c83d 2fbe d93d bd22 6e3d
00000180: c1b1 46bd c8fb 0c3e b96c 29be 79d9 f3bd
00000190: aa04 20bd c3a4 e5bd 91ea 9f3c b138 2bbe
000001a0: 1f2c 0e3e f50e 093d 00b9 0cbe c3c4 d1bd
000001b0: eeff 373d 459d 543d f8fa 623c 5f26 fc3d
000001c0: 8b0f f6bd d2bf e43c ae3d 9dbd e77f 933d
000001d0: d0e5 793d f90d e7bd d99d bbbd 2f48 12bd
000001e0: 6508 68bc b930 55bd 62be e0bd bc04 223e
000001f0: 019f 31be 1bf1 a23d dfd5 123d d0fe fabd
00000200: 46a6 dc3d a139 893b cab7 c8bd adda 8c3d
00000210: ee5e 17be b4bc 8c3d bbdc 1bbe bc7c a6bc
00000220: cd42 873d 5f9e dbbd 1659 2d3e 677a e03d
00000230: 2b41 a63d 5e12 dd3d 9289 443c d201 a2bd
00000240: 5830 0cbe 0c15 e5bb 1bed bbbd 39af 093e
00000250: 00de bf3d 0c78 053e ab24 14bd 7d8b 0ebe
00000260: e112 8f3c 2c48 92bd 6f77 e8bd 4623 71bd
00000270: 58f6 a93d 15af 8c3d 3177 9fbd d5fc adbb
00000280: 2b48 0a3e 20d6 31be 958e 84bd 9a14 2b3e
00000290: 23cd 94ba 40c0 be3d 1221 35bc 9502 c83d
000002a0: c5dd 20bd e48e 0a3e a302 28bd 6cdd 093e
000002b0: 575a f73d 6afe 263e 8ab1 11be 045c 16be
000002c0: 6e4b 1abe 8498 2b3c 9d52 82bd 1dae 703b
000002d0: 217d 273d cead 1cbe 5b03 1cbd 932d 91bd
000002e0: 87d1 be3d d0c0 ab3c 8a5e 8dbd f78c 2abe
000002f0: 0f24 26be 3f60 0a3e 8565 a9bd a989 16be
00000300: 9889 893d cbe2 01be 17d3 01be 055c 91bd
00000310: 1e24 103e c0b6 11bd ef85 e43d 9be4 6dbd
00000320: b8ee 0d3e 8a4c 7f3c 13a2 f1bd 4fba 903d
00000330: ee58 bb3c 45d7 a7bd 85e5 9ebc d369 453c
00000340: c6f4 263d b45a b4bd 1c70 0f3e bcb9 1ebe
00000350: 4e23 f2bc 61fb 0ebe d90c 16be 94b3 393e
00000360: 0018 02be 5d08 d63d d39e adbd 48bd 32be
00000370: 3aaa 81bc ac00 743d 9907 1ebe b372 e1bd
00000380: 7b51 dcbd a907 633d d828 293e e5a5 d0bd
00000390: 300f 953d 0148 343e f9dd 033e 2b5d 51bd
000003a0: 265a dfbd 287e 133d 8e8c a1bd 3269 a13d
000003b0: 7eba fe3d 7d6d b63d 0b78 033d 7e3a f8bd
000003c0: 4003 01bd 35af a3bd 6232 6dbd 3faf 053c
000003d0: eb88 1b3e 9b56 52bb 3b21 9b3d 0253 b03d
000003e0: c3e8 e03d 3190 27be 6517 b9bd 96fa a63d
000003f0: 15ef 01be ad3f 4d3d 3326 2abe 4239 1dbd

model.0.bias f4 [16]
-0.16766518 0.048253562 0.036422934 -0.052196845 -0.017632274 0.08308997 0.028050516 0.098583154
0.1544451 0.022268012 0.13314338 0.09868146 0.022562321 -0.16302966 0.017552853 0.13866085
00000000: 6cb0 2bbe 87a5 453d 3730 153d 5ccc 55bd
00000010: 8f71 90bc 132b aa3d 32ca e53c f7e5 c93d
00000020: db26 1e3e 686b b63c bd56 083e 8119 ca3d
00000030: 9ed4 b83c 3ff1 26be 00cb 8f3c 1cfd 0d3e

model.1.weight f4 [4, 16]
-0.12515427 0.06965924 0.1399732 0.04777802 0.04923053 0.16626188 -0.084797956 0.20821145
-0.16528392 0.047740366 0.058189772 0.045609035 -0.17513694 0.19319394 0.024005469 -0.023876166
-0.15311834 -0.05580215 0.12698859 -0.022520239 -0.25663766 -0.03996573 -0.23517375 -0.17346251
-0.12657613 -0.1817199 0.07679311 0.1548657 0.14871052 -0.05759789 -0.04087103 -0.23014307
0.17297168 -0.035334725 -0.18996738 0.06795022 -0.14363082 -0.15427853 -0.23180246 -0.21681425
0.11792932 0.23933421 -0.12833981 -0.23391584 -0.024865357 -0.12953831 0.13057657 0.03361579
0.034441255 -0.04888305 -0.019087471 -0.06365101 -0.12404956 0.06236478 -0.08971037 -0.24496435
-0.06452817 0.25310358 -0.12031827 -0.12736696 -0.17043062 -0.1509479 0.038919162 0.2537486
00000000: 7128 00be 81a9 8e3d 2255 0f3e e3b2 433d
00000010: f4a5 493d 8e40 2a3e 8daa adbd 6235 553e
00000020: 3040 29be 678b 433d 6658 6e3d 8ad0 3a3d
00000030: 1957 33be a2d4 453e 1ea7 c43c f397 c3bc
00000040: 0ecb 1cbe cc90 64bd 4c09 023e 5d7c b8bc
00000050: 0366 83be 1bb3 23bd 63d1 70be 28a0 31be
00000060: 2c9d 01be c814 3abe b545 9d3d 1d95 1e3e
00000070: 9247 183e c4eb 6bbd 6268 27bd a0aa 6bbe
00000080: 7d1f 313e 25bb 10bd cf86 42be 7c29 8b3d
00000090: f513 13be 31fb 1dbe a05d 6dbe 8e04 5ebe
000000a0: ed84 f13d 0714 753e 836b 03be a287 6fbe
000000b0: 6fb2 cbbc b1a5 04be ddb5 053e b6b0 093d
000000c0: 4612 0d3d 9839 48bd 545d 9cbc 765b 82bd
000000d0: b20d febd 3672 7f3d 12ba b7bd efd7 7abe
000000e0: 5827 84bd cb96 813e 6d69 f6bd 7c6c 02be
000000f0: 5d85 2ebe 1692 1abe b369 1f3d 56eb 813e

model.1.bias f4 [4]
0.12876886 0.19689307 -0.17186871 -0.06527305
00000000: fcdb 033e 569e 493e 5afe 2fbe e0ad 85bd
